{"format": "graph-model", "generatedBy": "2.8.0", "convertedBy": "TensorFlow.js Converter v3.13.0", "signature": {"inputs": {"input_1": {"name": "input_1:0", "dtype": "DT_FLOAT", "tensorShape": {"dim": [{"size": "-1"}, {"size": "36"}, {"size": "100"}, {"size": "176"}, {"size": "1"}]}}}, "outputs": {"dense_16": {"name": "Identity:0", "dtype": "DT_FLOAT", "tensorShape": {"dim": [{"size": "-1"}, {"size": "8"}]}}}}, "modelTopology": {"node": [{"name": "StatefulPartitionedCall/model/layer_normalization_16/batchnorm/ReadVariableOp", "op": "Const", "attr": {"dtype": {"type": "DT_FLOAT"}, "value": {"tensor": {"dtype": "DT_FLOAT", "tensorShape": {"dim": [{"size": "128"}]}}}}}, {"name": "StatefulPartitionedCall/model/sequential_7/dense_15/Gelu/mul/x", "op": "Const", "attr": {"dtype": {"type": "DT_FLOAT"}, "value": {"tensor": {"dtype": "DT_FLOAT", "tensorShape": {}}}}}, {"name": "StatefulPartitionedCall/model/sequential_7/dense_15/Gelu/add/x", "op": "Const", "attr": {"value": {"tensor": {"dtype": "DT_FLOAT", "tensorShape": {}}}, "dtype": {"type": "DT_FLOAT"}}}, {"name": "StatefulPartitionedCall/model/sequential_7/dense_15/Tensordot/Const", "op": "Const", "attr": {"dtype": {"type": "DT_INT32"}, "value": {"tensor": {"dtype": "DT_INT32", "tensorShape": {"dim": [{"size": "1"}]}}}}}, {"name": "StatefulPartitionedCall/model/sequential_7/dense_15/Tensordot/axes", "op": "Const", "attr": {"value": {"tensor": {"dtype": "DT_INT32", "tensorShape": {"dim": [{"size": "1"}]}}}, "dtype": {"type": "DT_INT32"}}}, {"name": "StatefulPartitionedCall/model/sequential_7/dense_15/Tensordot/GatherV2_1/axis", "op": "Const", "attr": {"dtype": {"type": "DT_INT32"}, "value": {"tensor": {"dtype": "DT_INT32", "tensorShape": {}}}}}, {"name": "StatefulPartitionedCall/model/sequential_7/dense_15/Tensordot/Const_1", "op": "Const", "attr": {"dtype": {"type": "DT_INT32"}, "value": {"tensor": {"dtype": "DT_INT32", "tensorShape": {"dim": [{"size": "1"}]}}}}}, {"name": "StatefulPartitionedCall/model/sequential_7/dense_15/Tensordot/ReadVariableOp", "op": "Const", "attr": {"dtype": {"type": "DT_FLOAT"}, "value": {"tensor": {"dtype": "DT_FLOAT", "tensorShape": {"dim": [{"size": "512"}, {"size": "128"}]}}}}}, {"name": "StatefulPartitionedCall/model/sequential_7/dense_14/Gelu/mul/x", "op": "Const", "attr": {"dtype": {"type": "DT_FLOAT"}, "value": {"tensor": {"dtype": "DT_FLOAT", "tensorShape": {}}}}}, {"name": "StatefulPartitionedCall/model/sequential_7/dense_14/Gelu/add/x", "op": "Const", "attr": {"value": {"tensor": {"dtype": "DT_FLOAT", "tensorShape": {}}}, "dtype": {"type": "DT_FLOAT"}}}, {"name": "StatefulPartitionedCall/model/sequential_7/dense_14/Tensordot/Const", "op": "Const", "attr": {"value": {"tensor": {"dtype": "DT_INT32", "tensorShape": {"dim": [{"size": "1"}]}}}, "dtype": {"type": "DT_INT32"}}}, {"name": "StatefulPartitionedCall/model/sequential_7/dense_14/Tensordot/axes", "op": "Const", "attr": {"dtype": {"type": "DT_INT32"}, "value": {"tensor": {"dtype": "DT_INT32", "tensorShape": {"dim": [{"size": "1"}]}}}}}, {"name": "StatefulPartitionedCall/model/sequential_7/dense_14/Tensordot/GatherV2_1/axis", "op": "Const", "attr": {"dtype": {"type": "DT_INT32"}, "value": {"tensor": {"dtype": "DT_INT32", "tensorShape": {}}}}}, {"name": "StatefulPartitionedCall/model/sequential_7/dense_14/Tensordot/Const_1", "op": "Const", "attr": {"value": {"tensor": {"dtype": "DT_INT32", "tensorShape": {"dim": [{"size": "1"}]}}}, "dtype": {"type": "DT_INT32"}}}, {"name": "StatefulPartitionedCall/model/sequential_7/dense_14/Tensordot/ReadVariableOp", "op": "Const", "attr": {"dtype": {"type": "DT_FLOAT"}, "value": {"tensor": {"dtype": "DT_FLOAT", "tensorShape": {"dim": [{"size": "128"}, {"size": "512"}]}}}}}, {"name": "StatefulPartitionedCall/model/layer_normalization_15/batchnorm/ReadVariableOp", "op": "Const", "attr": {"value": {"tensor": {"dtype": "DT_FLOAT", "tensorShape": {"dim": [{"size": "128"}]}}}, "dtype": {"type": "DT_FLOAT"}}}, {"name": "StatefulPartitionedCall/model/layer_normalization_15/moments/mean/reduction_indices", "op": "Const", "attr": {"dtype": {"type": "DT_INT32"}, "value": {"tensor": {"dtype": "DT_INT32", "tensorShape": {"dim": [{"size": "1"}]}}}}}, {"name": "StatefulPartitionedCall/model/layer_normalization_15/moments/variance/reduction_indices", "op": "Const", "attr": {"value": {"tensor": {"dtype": "DT_INT32", "tensorShape": {"dim": [{"size": "1"}]}}}, "dtype": {"type": "DT_INT32"}}}, {"name": "StatefulPartitionedCall/model/layer_normalization_15/batchnorm/add/y", "op": "Const", "attr": {"value": {"tensor": {"dtype": "DT_FLOAT", "tensorShape": {}}}, "dtype": {"type": "DT_FLOAT"}}}, {"name": "StatefulPartitionedCall/model/layer_normalization_15/batchnorm/mul/ReadVariableOp", "op": "Const", "attr": {"value": {"tensor": {"dtype": "DT_FLOAT", "tensorShape": {"dim": [{"size": "128"}]}}}, "dtype": {"type": "DT_FLOAT"}}}, {"name": "StatefulPartitionedCall/model/sequential_7/dense_14/Tensordot/free", "op": "Const", "attr": {"dtype": {"type": "DT_INT32"}, "value": {"tensor": {"dtype": "DT_INT32", "tensorShape": {"dim": [{"size": "2"}]}}}}}, {"name": "StatefulPartitionedCall/model/sequential_7/dense_14/Tensordot/GatherV2/axis", "op": "Const", "attr": {"dtype": {"type": "DT_INT32"}, "value": {"tensor": {"dtype": "DT_INT32", "tensorShape": {}}}}}, {"name": "StatefulPartitionedCall/model/sequential_7/dense_14/Tensordot/Const_2", "op": "Const", "attr": {"value": {"tensor": {"dtype": "DT_INT32", "tensorShape": {"dim": [{"size": "1"}]}}}, "dtype": {"type": "DT_INT32"}}}, {"name": "StatefulPartitionedCall/model/sequential_7/dense_14/Tensordot/concat_1/axis", "op": "Const", "attr": {"value": {"tensor": {"dtype": "DT_INT32", "tensorShape": {}}}, "dtype": {"type": "DT_INT32"}}}, {"name": "StatefulPartitionedCall/model/sequential_7/dense_14/BiasAdd/ReadVariableOp", "op": "Const", "attr": {"value": {"tensor": {"dtype": "DT_FLOAT", "tensorShape": {"dim": [{"size": "512"}]}}}, "dtype": {"type": "DT_FLOAT"}}}, {"name": "ConstantFolding/StatefulPartitionedCall/model/sequential_7/dense_14/Gelu/truediv_recip", "op": "Const", "attr": {"value": {"tensor": {"dtype": "DT_FLOAT", "tensorShape": {}}}, "dtype": {"type": "DT_FLOAT"}}}, {"name": "StatefulPartitionedCall/model/sequential_7/dense_15/Tensordot/free", "op": "Const", "attr": {"value": {"tensor": {"dtype": "DT_INT32", "tensorShape": {"dim": [{"size": "2"}]}}}, "dtype": {"type": "DT_INT32"}}}, {"name": "StatefulPartitionedCall/model/sequential_7/dense_15/Tensordot/GatherV2/axis", "op": "Const", "attr": {"value": {"tensor": {"dtype": "DT_INT32", "tensorShape": {}}}, "dtype": {"type": "DT_INT32"}}}, {"name": "StatefulPartitionedCall/model/sequential_7/dense_15/Tensordot/Const_2", "op": "Const", "attr": {"dtype": {"type": "DT_INT32"}, "value": {"tensor": {"dtype": "DT_INT32", "tensorShape": {"dim": [{"size": "1"}]}}}}}, {"name": "StatefulPartitionedCall/model/sequential_7/dense_15/Tensordot/concat_1/axis", "op": "Const", "attr": {"dtype": {"type": "DT_INT32"}, "value": {"tensor": {"dtype": "DT_INT32", "tensorShape": {}}}}}, {"name": "StatefulPartitionedCall/model/sequential_7/dense_15/BiasAdd/ReadVariableOp", "op": "Const", "attr": {"dtype": {"type": "DT_FLOAT"}, "value": {"tensor": {"dtype": "DT_FLOAT", "tensorShape": {"dim": [{"size": "128"}]}}}}}, {"name": "ConstantFolding/StatefulPartitionedCall/model/sequential_7/dense_15/Gelu/truediv_recip", "op": "Const", "attr": {"dtype": {"type": "DT_FLOAT"}, "value": {"tensor": {"dtype": "DT_FLOAT", "tensorShape": {}}}}}, {"name": "StatefulPartitionedCall/model/multi_head_attention_7/attention_output/add/ReadVariableOp", "op": "Const", "attr": {"value": {"tensor": {"dtype": "DT_FLOAT", "tensorShape": {"dim": [{"size": "128"}]}}}, "dtype": {"type": "DT_FLOAT"}}}, {"name": "StatefulPartitionedCall/model/multi_head_attention_7/key/einsum/Einsum/ReadVariableOp", "op": "Const", "attr": {"value": {"tensor": {"dtype": "DT_FLOAT", "tensorShape": {"dim": [{"size": "128"}, {"size": "8"}, {"size": "16"}]}}}, "dtype": {"type": "DT_FLOAT"}}}, {"name": "StatefulPartitionedCall/model/multi_head_attention_7/key/add/ReadVariableOp", "op": "Const", "attr": {"dtype": {"type": "DT_FLOAT"}, "value": {"tensor": {"dtype": "DT_FLOAT", "tensorShape": {"dim": [{"size": "8"}, {"size": "16"}]}}}}}, {"name": "StatefulPartitionedCall/model/multi_head_attention_7/query/einsum/Einsum/ReadVariableOp", "op": "Const", "attr": {"dtype": {"type": "DT_FLOAT"}, "value": {"tensor": {"dtype": "DT_FLOAT", "tensorShape": {"dim": [{"size": "128"}, {"size": "8"}, {"size": "16"}]}}}}}, {"name": "StatefulPartitionedCall/model/multi_head_attention_7/query/add/ReadVariableOp", "op": "Const", "attr": {"dtype": {"type": "DT_FLOAT"}, "value": {"tensor": {"dtype": "DT_FLOAT", "tensorShape": {"dim": [{"size": "8"}, {"size": "16"}]}}}}}, {"name": "StatefulPartitionedCall/model/multi_head_attention_7/Mul/y", "op": "Const", "attr": {"value": {"tensor": {"dtype": "DT_FLOAT", "tensorShape": {}}}, "dtype": {"type": "DT_FLOAT"}}}, {"name": "StatefulPartitionedCall/model/layer_normalization_14/batchnorm/ReadVariableOp", "op": "Const", "attr": {"value": {"tensor": {"dtype": "DT_FLOAT", "tensorShape": {"dim": [{"size": "128"}]}}}, "dtype": {"type": "DT_FLOAT"}}}, {"name": "StatefulPartitionedCall/model/layer_normalization_14/moments/mean/reduction_indices", "op": "Const", "attr": {"value": {"tensor": {"dtype": "DT_INT32", "tensorShape": {"dim": [{"size": "1"}]}}}, "dtype": {"type": "DT_INT32"}}}, {"name": "StatefulPartitionedCall/model/layer_normalization_14/moments/variance/reduction_indices", "op": "Const", "attr": {"value": {"tensor": {"dtype": "DT_INT32", "tensorShape": {"dim": [{"size": "1"}]}}}, "dtype": {"type": "DT_INT32"}}}, {"name": "StatefulPartitionedCall/model/layer_normalization_14/batchnorm/add/y", "op": "Const", "attr": {"dtype": {"type": "DT_FLOAT"}, "value": {"tensor": {"dtype": "DT_FLOAT", "tensorShape": {}}}}}, {"name": "StatefulPartitionedCall/model/layer_normalization_14/batchnorm/mul/ReadVariableOp", "op": "Const", "attr": {"dtype": {"type": "DT_FLOAT"}, "value": {"tensor": {"dtype": "DT_FLOAT", "tensorShape": {"dim": [{"size": "128"}]}}}}}, {"name": "StatefulPartitionedCall/model/multi_head_attention_7/value/einsum/Einsum/ReadVariableOp", "op": "Const", "attr": {"value": {"tensor": {"dtype": "DT_FLOAT", "tensorShape": {"dim": [{"size": "128"}, {"size": "8"}, {"size": "16"}]}}}, "dtype": {"type": "DT_FLOAT"}}}, {"name": "StatefulPartitionedCall/model/multi_head_attention_7/value/add/ReadVariableOp", "op": "Const", "attr": {"dtype": {"type": "DT_FLOAT"}, "value": {"tensor": {"dtype": "DT_FLOAT", "tensorShape": {"dim": [{"size": "8"}, {"size": "16"}]}}}}}, {"name": "StatefulPartitionedCall/model/multi_head_attention_7/attention_output/einsum/Einsum/ReadVariableOp", "op": "Const", "attr": {"dtype": {"type": "DT_FLOAT"}, "value": {"tensor": {"dtype": "DT_FLOAT", "tensorShape": {"dim": [{"size": "8"}, {"size": "16"}, {"size": "128"}]}}}}}, {"name": "StatefulPartitionedCall/model/sequential_6/dense_13/Gelu/mul/x", "op": "Const", "attr": {"value": {"tensor": {"dtype": "DT_FLOAT", "tensorShape": {}}}, "dtype": {"type": "DT_FLOAT"}}}, {"name": "StatefulPartitionedCall/model/sequential_6/dense_13/Gelu/add/x", "op": "Const", "attr": {"value": {"tensor": {"dtype": "DT_FLOAT", "tensorShape": {}}}, "dtype": {"type": "DT_FLOAT"}}}, {"name": "StatefulPartitionedCall/model/sequential_6/dense_13/Tensordot/Const", "op": "Const", "attr": {"dtype": {"type": "DT_INT32"}, "value": {"tensor": {"dtype": "DT_INT32", "tensorShape": {"dim": [{"size": "1"}]}}}}}, {"name": "StatefulPartitionedCall/model/sequential_6/dense_13/Tensordot/axes", "op": "Const", "attr": {"value": {"tensor": {"dtype": "DT_INT32", "tensorShape": {"dim": [{"size": "1"}]}}}, "dtype": {"type": "DT_INT32"}}}, {"name": "StatefulPartitionedCall/model/sequential_6/dense_13/Tensordot/GatherV2_1/axis", "op": "Const", "attr": {"dtype": {"type": "DT_INT32"}, "value": {"tensor": {"dtype": "DT_INT32", "tensorShape": {}}}}}, {"name": "StatefulPartitionedCall/model/sequential_6/dense_13/Tensordot/Const_1", "op": "Const", "attr": {"value": {"tensor": {"dtype": "DT_INT32", "tensorShape": {"dim": [{"size": "1"}]}}}, "dtype": {"type": "DT_INT32"}}}, {"name": "StatefulPartitionedCall/model/sequential_6/dense_13/Tensordot/ReadVariableOp", "op": "Const", "attr": {"dtype": {"type": "DT_FLOAT"}, "value": {"tensor": {"dtype": "DT_FLOAT", "tensorShape": {"dim": [{"size": "512"}, {"size": "128"}]}}}}}, {"name": "StatefulPartitionedCall/model/sequential_6/dense_12/Gelu/mul/x", "op": "Const", "attr": {"dtype": {"type": "DT_FLOAT"}, "value": {"tensor": {"dtype": "DT_FLOAT", "tensorShape": {}}}}}, {"name": "StatefulPartitionedCall/model/sequential_6/dense_12/Gelu/add/x", "op": "Const", "attr": {"dtype": {"type": "DT_FLOAT"}, "value": {"tensor": {"dtype": "DT_FLOAT", "tensorShape": {}}}}}, {"name": "StatefulPartitionedCall/model/sequential_6/dense_12/Tensordot/Const", "op": "Const", "attr": {"dtype": {"type": "DT_INT32"}, "value": {"tensor": {"dtype": "DT_INT32", "tensorShape": {"dim": [{"size": "1"}]}}}}}, {"name": "StatefulPartitionedCall/model/sequential_6/dense_12/Tensordot/axes", "op": "Const", "attr": {"dtype": {"type": "DT_INT32"}, "value": {"tensor": {"dtype": "DT_INT32", "tensorShape": {"dim": [{"size": "1"}]}}}}}, {"name": "StatefulPartitionedCall/model/sequential_6/dense_12/Tensordot/GatherV2_1/axis", "op": "Const", "attr": {"value": {"tensor": {"dtype": "DT_INT32", "tensorShape": {}}}, "dtype": {"type": "DT_INT32"}}}, {"name": "StatefulPartitionedCall/model/sequential_6/dense_12/Tensordot/Const_1", "op": "Const", "attr": {"value": {"tensor": {"dtype": "DT_INT32", "tensorShape": {"dim": [{"size": "1"}]}}}, "dtype": {"type": "DT_INT32"}}}, {"name": "StatefulPartitionedCall/model/sequential_6/dense_12/Tensordot/ReadVariableOp", "op": "Const", "attr": {"value": {"tensor": {"dtype": "DT_FLOAT", "tensorShape": {"dim": [{"size": "128"}, {"size": "512"}]}}}, "dtype": {"type": "DT_FLOAT"}}}, {"name": "StatefulPartitionedCall/model/layer_normalization_13/batchnorm/ReadVariableOp", "op": "Const", "attr": {"value": {"tensor": {"dtype": "DT_FLOAT", "tensorShape": {"dim": [{"size": "128"}]}}}, "dtype": {"type": "DT_FLOAT"}}}, {"name": "StatefulPartitionedCall/model/layer_normalization_13/moments/mean/reduction_indices", "op": "Const", "attr": {"value": {"tensor": {"dtype": "DT_INT32", "tensorShape": {"dim": [{"size": "1"}]}}}, "dtype": {"type": "DT_INT32"}}}, {"name": "StatefulPartitionedCall/model/layer_normalization_13/moments/variance/reduction_indices", "op": "Const", "attr": {"dtype": {"type": "DT_INT32"}, "value": {"tensor": {"dtype": "DT_INT32", "tensorShape": {"dim": [{"size": "1"}]}}}}}, {"name": "StatefulPartitionedCall/model/layer_normalization_13/batchnorm/add/y", "op": "Const", "attr": {"dtype": {"type": "DT_FLOAT"}, "value": {"tensor": {"dtype": "DT_FLOAT", "tensorShape": {}}}}}, {"name": "StatefulPartitionedCall/model/layer_normalization_13/batchnorm/mul/ReadVariableOp", "op": "Const", "attr": {"value": {"tensor": {"dtype": "DT_FLOAT", "tensorShape": {"dim": [{"size": "128"}]}}}, "dtype": {"type": "DT_FLOAT"}}}, {"name": "StatefulPartitionedCall/model/sequential_6/dense_12/Tensordot/free", "op": "Const", "attr": {"value": {"tensor": {"dtype": "DT_INT32", "tensorShape": {"dim": [{"size": "2"}]}}}, "dtype": {"type": "DT_INT32"}}}, {"name": "StatefulPartitionedCall/model/sequential_6/dense_12/Tensordot/GatherV2/axis", "op": "Const", "attr": {"dtype": {"type": "DT_INT32"}, "value": {"tensor": {"dtype": "DT_INT32", "tensorShape": {}}}}}, {"name": "StatefulPartitionedCall/model/sequential_6/dense_12/Tensordot/Const_2", "op": "Const", "attr": {"value": {"tensor": {"dtype": "DT_INT32", "tensorShape": {"dim": [{"size": "1"}]}}}, "dtype": {"type": "DT_INT32"}}}, {"name": "StatefulPartitionedCall/model/sequential_6/dense_12/Tensordot/concat_1/axis", "op": "Const", "attr": {"dtype": {"type": "DT_INT32"}, "value": {"tensor": {"dtype": "DT_INT32", "tensorShape": {}}}}}, {"name": "StatefulPartitionedCall/model/sequential_6/dense_12/BiasAdd/ReadVariableOp", "op": "Const", "attr": {"value": {"tensor": {"dtype": "DT_FLOAT", "tensorShape": {"dim": [{"size": "512"}]}}}, "dtype": {"type": "DT_FLOAT"}}}, {"name": "ConstantFolding/StatefulPartitionedCall/model/sequential_6/dense_12/Gelu/truediv_recip", "op": "Const", "attr": {"dtype": {"type": "DT_FLOAT"}, "value": {"tensor": {"dtype": "DT_FLOAT", "tensorShape": {}}}}}, {"name": "StatefulPartitionedCall/model/sequential_6/dense_13/Tensordot/free", "op": "Const", "attr": {"value": {"tensor": {"dtype": "DT_INT32", "tensorShape": {"dim": [{"size": "2"}]}}}, "dtype": {"type": "DT_INT32"}}}, {"name": "StatefulPartitionedCall/model/sequential_6/dense_13/Tensordot/GatherV2/axis", "op": "Const", "attr": {"value": {"tensor": {"dtype": "DT_INT32", "tensorShape": {}}}, "dtype": {"type": "DT_INT32"}}}, {"name": "StatefulPartitionedCall/model/sequential_6/dense_13/Tensordot/Const_2", "op": "Const", "attr": {"dtype": {"type": "DT_INT32"}, "value": {"tensor": {"dtype": "DT_INT32", "tensorShape": {"dim": [{"size": "1"}]}}}}}, {"name": "StatefulPartitionedCall/model/sequential_6/dense_13/Tensordot/concat_1/axis", "op": "Const", "attr": {"value": {"tensor": {"dtype": "DT_INT32", "tensorShape": {}}}, "dtype": {"type": "DT_INT32"}}}, {"name": "StatefulPartitionedCall/model/sequential_6/dense_13/BiasAdd/ReadVariableOp", "op": "Const", "attr": {"dtype": {"type": "DT_FLOAT"}, "value": {"tensor": {"dtype": "DT_FLOAT", "tensorShape": {"dim": [{"size": "128"}]}}}}}, {"name": "ConstantFolding/StatefulPartitionedCall/model/sequential_6/dense_13/Gelu/truediv_recip", "op": "Const", "attr": {"dtype": {"type": "DT_FLOAT"}, "value": {"tensor": {"dtype": "DT_FLOAT", "tensorShape": {}}}}}, {"name": "StatefulPartitionedCall/model/multi_head_attention_6/attention_output/add/ReadVariableOp", "op": "Const", "attr": {"value": {"tensor": {"dtype": "DT_FLOAT", "tensorShape": {"dim": [{"size": "128"}]}}}, "dtype": {"type": "DT_FLOAT"}}}, {"name": "StatefulPartitionedCall/model/multi_head_attention_6/key/einsum/Einsum/ReadVariableOp", "op": "Const", "attr": {"value": {"tensor": {"dtype": "DT_FLOAT", "tensorShape": {"dim": [{"size": "128"}, {"size": "8"}, {"size": "16"}]}}}, "dtype": {"type": "DT_FLOAT"}}}, {"name": "StatefulPartitionedCall/model/multi_head_attention_6/key/add/ReadVariableOp", "op": "Const", "attr": {"value": {"tensor": {"dtype": "DT_FLOAT", "tensorShape": {"dim": [{"size": "8"}, {"size": "16"}]}}}, "dtype": {"type": "DT_FLOAT"}}}, {"name": "StatefulPartitionedCall/model/multi_head_attention_6/query/einsum/Einsum/ReadVariableOp", "op": "Const", "attr": {"dtype": {"type": "DT_FLOAT"}, "value": {"tensor": {"dtype": "DT_FLOAT", "tensorShape": {"dim": [{"size": "128"}, {"size": "8"}, {"size": "16"}]}}}}}, {"name": "StatefulPartitionedCall/model/multi_head_attention_6/query/add/ReadVariableOp", "op": "Const", "attr": {"value": {"tensor": {"dtype": "DT_FLOAT", "tensorShape": {"dim": [{"size": "8"}, {"size": "16"}]}}}, "dtype": {"type": "DT_FLOAT"}}}, {"name": "StatefulPartitionedCall/model/multi_head_attention_6/Mul/y", "op": "Const", "attr": {"value": {"tensor": {"dtype": "DT_FLOAT", "tensorShape": {}}}, "dtype": {"type": "DT_FLOAT"}}}, {"name": "StatefulPartitionedCall/model/layer_normalization_12/batchnorm/ReadVariableOp", "op": "Const", "attr": {"value": {"tensor": {"dtype": "DT_FLOAT", "tensorShape": {"dim": [{"size": "128"}]}}}, "dtype": {"type": "DT_FLOAT"}}}, {"name": "StatefulPartitionedCall/model/layer_normalization_12/moments/mean/reduction_indices", "op": "Const", "attr": {"value": {"tensor": {"dtype": "DT_INT32", "tensorShape": {"dim": [{"size": "1"}]}}}, "dtype": {"type": "DT_INT32"}}}, {"name": "StatefulPartitionedCall/model/layer_normalization_12/moments/variance/reduction_indices", "op": "Const", "attr": {"dtype": {"type": "DT_INT32"}, "value": {"tensor": {"dtype": "DT_INT32", "tensorShape": {"dim": [{"size": "1"}]}}}}}, {"name": "StatefulPartitionedCall/model/layer_normalization_12/batchnorm/add/y", "op": "Const", "attr": {"value": {"tensor": {"dtype": "DT_FLOAT", "tensorShape": {}}}, "dtype": {"type": "DT_FLOAT"}}}, {"name": "StatefulPartitionedCall/model/layer_normalization_12/batchnorm/mul/ReadVariableOp", "op": "Const", "attr": {"value": {"tensor": {"dtype": "DT_FLOAT", "tensorShape": {"dim": [{"size": "128"}]}}}, "dtype": {"type": "DT_FLOAT"}}}, {"name": "StatefulPartitionedCall/model/multi_head_attention_6/value/einsum/Einsum/ReadVariableOp", "op": "Const", "attr": {"dtype": {"type": "DT_FLOAT"}, "value": {"tensor": {"dtype": "DT_FLOAT", "tensorShape": {"dim": [{"size": "128"}, {"size": "8"}, {"size": "16"}]}}}}}, {"name": "StatefulPartitionedCall/model/multi_head_attention_6/value/add/ReadVariableOp", "op": "Const", "attr": {"dtype": {"type": "DT_FLOAT"}, "value": {"tensor": {"dtype": "DT_FLOAT", "tensorShape": {"dim": [{"size": "8"}, {"size": "16"}]}}}}}, {"name": "StatefulPartitionedCall/model/multi_head_attention_6/attention_output/einsum/Einsum/ReadVariableOp", "op": "Const", "attr": {"dtype": {"type": "DT_FLOAT"}, "value": {"tensor": {"dtype": "DT_FLOAT", "tensorShape": {"dim": [{"size": "8"}, {"size": "16"}, {"size": "128"}]}}}}}, {"name": "StatefulPartitionedCall/model/sequential_5/dense_11/Gelu/mul/x", "op": "Const", "attr": {"dtype": {"type": "DT_FLOAT"}, "value": {"tensor": {"dtype": "DT_FLOAT", "tensorShape": {}}}}}, {"name": "StatefulPartitionedCall/model/sequential_5/dense_11/Gelu/add/x", "op": "Const", "attr": {"dtype": {"type": "DT_FLOAT"}, "value": {"tensor": {"dtype": "DT_FLOAT", "tensorShape": {}}}}}, {"name": "StatefulPartitionedCall/model/sequential_5/dense_11/Tensordot/Const", "op": "Const", "attr": {"dtype": {"type": "DT_INT32"}, "value": {"tensor": {"dtype": "DT_INT32", "tensorShape": {"dim": [{"size": "1"}]}}}}}, {"name": "StatefulPartitionedCall/model/sequential_5/dense_11/Tensordot/axes", "op": "Const", "attr": {"dtype": {"type": "DT_INT32"}, "value": {"tensor": {"dtype": "DT_INT32", "tensorShape": {"dim": [{"size": "1"}]}}}}}, {"name": "StatefulPartitionedCall/model/sequential_5/dense_11/Tensordot/GatherV2_1/axis", "op": "Const", "attr": {"value": {"tensor": {"dtype": "DT_INT32", "tensorShape": {}}}, "dtype": {"type": "DT_INT32"}}}, {"name": "StatefulPartitionedCall/model/sequential_5/dense_11/Tensordot/Const_1", "op": "Const", "attr": {"value": {"tensor": {"dtype": "DT_INT32", "tensorShape": {"dim": [{"size": "1"}]}}}, "dtype": {"type": "DT_INT32"}}}, {"name": "StatefulPartitionedCall/model/sequential_5/dense_11/Tensordot/ReadVariableOp", "op": "Const", "attr": {"dtype": {"type": "DT_FLOAT"}, "value": {"tensor": {"dtype": "DT_FLOAT", "tensorShape": {"dim": [{"size": "512"}, {"size": "128"}]}}}}}, {"name": "StatefulPartitionedCall/model/sequential_5/dense_10/Gelu/mul/x", "op": "Const", "attr": {"dtype": {"type": "DT_FLOAT"}, "value": {"tensor": {"dtype": "DT_FLOAT", "tensorShape": {}}}}}, {"name": "StatefulPartitionedCall/model/sequential_5/dense_10/Gelu/add/x", "op": "Const", "attr": {"value": {"tensor": {"dtype": "DT_FLOAT", "tensorShape": {}}}, "dtype": {"type": "DT_FLOAT"}}}, {"name": "StatefulPartitionedCall/model/sequential_5/dense_10/Tensordot/Const", "op": "Const", "attr": {"dtype": {"type": "DT_INT32"}, "value": {"tensor": {"dtype": "DT_INT32", "tensorShape": {"dim": [{"size": "1"}]}}}}}, {"name": "StatefulPartitionedCall/model/sequential_5/dense_10/Tensordot/axes", "op": "Const", "attr": {"dtype": {"type": "DT_INT32"}, "value": {"tensor": {"dtype": "DT_INT32", "tensorShape": {"dim": [{"size": "1"}]}}}}}, {"name": "StatefulPartitionedCall/model/sequential_5/dense_10/Tensordot/GatherV2_1/axis", "op": "Const", "attr": {"dtype": {"type": "DT_INT32"}, "value": {"tensor": {"dtype": "DT_INT32", "tensorShape": {}}}}}, {"name": "StatefulPartitionedCall/model/sequential_5/dense_10/Tensordot/Const_1", "op": "Const", "attr": {"dtype": {"type": "DT_INT32"}, "value": {"tensor": {"dtype": "DT_INT32", "tensorShape": {"dim": [{"size": "1"}]}}}}}, {"name": "StatefulPartitionedCall/model/sequential_5/dense_10/Tensordot/ReadVariableOp", "op": "Const", "attr": {"dtype": {"type": "DT_FLOAT"}, "value": {"tensor": {"dtype": "DT_FLOAT", "tensorShape": {"dim": [{"size": "128"}, {"size": "512"}]}}}}}, {"name": "StatefulPartitionedCall/model/layer_normalization_11/batchnorm/ReadVariableOp", "op": "Const", "attr": {"dtype": {"type": "DT_FLOAT"}, "value": {"tensor": {"dtype": "DT_FLOAT", "tensorShape": {"dim": [{"size": "128"}]}}}}}, {"name": "StatefulPartitionedCall/model/layer_normalization_11/moments/mean/reduction_indices", "op": "Const", "attr": {"value": {"tensor": {"dtype": "DT_INT32", "tensorShape": {"dim": [{"size": "1"}]}}}, "dtype": {"type": "DT_INT32"}}}, {"name": "StatefulPartitionedCall/model/layer_normalization_11/moments/variance/reduction_indices", "op": "Const", "attr": {"dtype": {"type": "DT_INT32"}, "value": {"tensor": {"dtype": "DT_INT32", "tensorShape": {"dim": [{"size": "1"}]}}}}}, {"name": "StatefulPartitionedCall/model/layer_normalization_11/batchnorm/add/y", "op": "Const", "attr": {"dtype": {"type": "DT_FLOAT"}, "value": {"tensor": {"dtype": "DT_FLOAT", "tensorShape": {}}}}}, {"name": "StatefulPartitionedCall/model/layer_normalization_11/batchnorm/mul/ReadVariableOp", "op": "Const", "attr": {"value": {"tensor": {"dtype": "DT_FLOAT", "tensorShape": {"dim": [{"size": "128"}]}}}, "dtype": {"type": "DT_FLOAT"}}}, {"name": "StatefulPartitionedCall/model/sequential_5/dense_10/Tensordot/free", "op": "Const", "attr": {"value": {"tensor": {"dtype": "DT_INT32", "tensorShape": {"dim": [{"size": "2"}]}}}, "dtype": {"type": "DT_INT32"}}}, {"name": "StatefulPartitionedCall/model/sequential_5/dense_10/Tensordot/GatherV2/axis", "op": "Const", "attr": {"dtype": {"type": "DT_INT32"}, "value": {"tensor": {"dtype": "DT_INT32", "tensorShape": {}}}}}, {"name": "StatefulPartitionedCall/model/sequential_5/dense_10/Tensordot/Const_2", "op": "Const", "attr": {"value": {"tensor": {"dtype": "DT_INT32", "tensorShape": {"dim": [{"size": "1"}]}}}, "dtype": {"type": "DT_INT32"}}}, {"name": "StatefulPartitionedCall/model/sequential_5/dense_10/Tensordot/concat_1/axis", "op": "Const", "attr": {"value": {"tensor": {"dtype": "DT_INT32", "tensorShape": {}}}, "dtype": {"type": "DT_INT32"}}}, {"name": "StatefulPartitionedCall/model/sequential_5/dense_10/BiasAdd/ReadVariableOp", "op": "Const", "attr": {"value": {"tensor": {"dtype": "DT_FLOAT", "tensorShape": {"dim": [{"size": "512"}]}}}, "dtype": {"type": "DT_FLOAT"}}}, {"name": "ConstantFolding/StatefulPartitionedCall/model/sequential_5/dense_10/Gelu/truediv_recip", "op": "Const", "attr": {"value": {"tensor": {"dtype": "DT_FLOAT", "tensorShape": {}}}, "dtype": {"type": "DT_FLOAT"}}}, {"name": "StatefulPartitionedCall/model/sequential_5/dense_11/Tensordot/free", "op": "Const", "attr": {"value": {"tensor": {"dtype": "DT_INT32", "tensorShape": {"dim": [{"size": "2"}]}}}, "dtype": {"type": "DT_INT32"}}}, {"name": "StatefulPartitionedCall/model/sequential_5/dense_11/Tensordot/GatherV2/axis", "op": "Const", "attr": {"dtype": {"type": "DT_INT32"}, "value": {"tensor": {"dtype": "DT_INT32", "tensorShape": {}}}}}, {"name": "StatefulPartitionedCall/model/sequential_5/dense_11/Tensordot/Const_2", "op": "Const", "attr": {"dtype": {"type": "DT_INT32"}, "value": {"tensor": {"dtype": "DT_INT32", "tensorShape": {"dim": [{"size": "1"}]}}}}}, {"name": "StatefulPartitionedCall/model/sequential_5/dense_11/Tensordot/concat_1/axis", "op": "Const", "attr": {"value": {"tensor": {"dtype": "DT_INT32", "tensorShape": {}}}, "dtype": {"type": "DT_INT32"}}}, {"name": "StatefulPartitionedCall/model/sequential_5/dense_11/BiasAdd/ReadVariableOp", "op": "Const", "attr": {"value": {"tensor": {"dtype": "DT_FLOAT", "tensorShape": {"dim": [{"size": "128"}]}}}, "dtype": {"type": "DT_FLOAT"}}}, {"name": "ConstantFolding/StatefulPartitionedCall/model/sequential_5/dense_11/Gelu/truediv_recip", "op": "Const", "attr": {"value": {"tensor": {"dtype": "DT_FLOAT", "tensorShape": {}}}, "dtype": {"type": "DT_FLOAT"}}}, {"name": "StatefulPartitionedCall/model/multi_head_attention_5/attention_output/add/ReadVariableOp", "op": "Const", "attr": {"value": {"tensor": {"dtype": "DT_FLOAT", "tensorShape": {"dim": [{"size": "128"}]}}}, "dtype": {"type": "DT_FLOAT"}}}, {"name": "StatefulPartitionedCall/model/multi_head_attention_5/key/einsum/Einsum/ReadVariableOp", "op": "Const", "attr": {"dtype": {"type": "DT_FLOAT"}, "value": {"tensor": {"dtype": "DT_FLOAT", "tensorShape": {"dim": [{"size": "128"}, {"size": "8"}, {"size": "16"}]}}}}}, {"name": "StatefulPartitionedCall/model/multi_head_attention_5/key/add/ReadVariableOp", "op": "Const", "attr": {"dtype": {"type": "DT_FLOAT"}, "value": {"tensor": {"dtype": "DT_FLOAT", "tensorShape": {"dim": [{"size": "8"}, {"size": "16"}]}}}}}, {"name": "StatefulPartitionedCall/model/multi_head_attention_5/query/einsum/Einsum/ReadVariableOp", "op": "Const", "attr": {"value": {"tensor": {"dtype": "DT_FLOAT", "tensorShape": {"dim": [{"size": "128"}, {"size": "8"}, {"size": "16"}]}}}, "dtype": {"type": "DT_FLOAT"}}}, {"name": "StatefulPartitionedCall/model/multi_head_attention_5/query/add/ReadVariableOp", "op": "Const", "attr": {"value": {"tensor": {"dtype": "DT_FLOAT", "tensorShape": {"dim": [{"size": "8"}, {"size": "16"}]}}}, "dtype": {"type": "DT_FLOAT"}}}, {"name": "StatefulPartitionedCall/model/multi_head_attention_5/Mul/y", "op": "Const", "attr": {"value": {"tensor": {"dtype": "DT_FLOAT", "tensorShape": {}}}, "dtype": {"type": "DT_FLOAT"}}}, {"name": "StatefulPartitionedCall/model/layer_normalization_10/batchnorm/ReadVariableOp", "op": "Const", "attr": {"value": {"tensor": {"dtype": "DT_FLOAT", "tensorShape": {"dim": [{"size": "128"}]}}}, "dtype": {"type": "DT_FLOAT"}}}, {"name": "StatefulPartitionedCall/model/layer_normalization_10/moments/mean/reduction_indices", "op": "Const", "attr": {"dtype": {"type": "DT_INT32"}, "value": {"tensor": {"dtype": "DT_INT32", "tensorShape": {"dim": [{"size": "1"}]}}}}}, {"name": "StatefulPartitionedCall/model/layer_normalization_10/moments/variance/reduction_indices", "op": "Const", "attr": {"value": {"tensor": {"dtype": "DT_INT32", "tensorShape": {"dim": [{"size": "1"}]}}}, "dtype": {"type": "DT_INT32"}}}, {"name": "StatefulPartitionedCall/model/layer_normalization_10/batchnorm/add/y", "op": "Const", "attr": {"value": {"tensor": {"dtype": "DT_FLOAT", "tensorShape": {}}}, "dtype": {"type": "DT_FLOAT"}}}, {"name": "StatefulPartitionedCall/model/layer_normalization_10/batchnorm/mul/ReadVariableOp", "op": "Const", "attr": {"value": {"tensor": {"dtype": "DT_FLOAT", "tensorShape": {"dim": [{"size": "128"}]}}}, "dtype": {"type": "DT_FLOAT"}}}, {"name": "StatefulPartitionedCall/model/multi_head_attention_5/value/einsum/Einsum/ReadVariableOp", "op": "Const", "attr": {"value": {"tensor": {"dtype": "DT_FLOAT", "tensorShape": {"dim": [{"size": "128"}, {"size": "8"}, {"size": "16"}]}}}, "dtype": {"type": "DT_FLOAT"}}}, {"name": "StatefulPartitionedCall/model/multi_head_attention_5/value/add/ReadVariableOp", "op": "Const", "attr": {"dtype": {"type": "DT_FLOAT"}, "value": {"tensor": {"dtype": "DT_FLOAT", "tensorShape": {"dim": [{"size": "8"}, {"size": "16"}]}}}}}, {"name": "StatefulPartitionedCall/model/multi_head_attention_5/attention_output/einsum/Einsum/ReadVariableOp", "op": "Const", "attr": {"dtype": {"type": "DT_FLOAT"}, "value": {"tensor": {"dtype": "DT_FLOAT", "tensorShape": {"dim": [{"size": "8"}, {"size": "16"}, {"size": "128"}]}}}}}, {"name": "StatefulPartitionedCall/model/sequential_4/dense_9/Gelu/mul/x", "op": "Const", "attr": {"dtype": {"type": "DT_FLOAT"}, "value": {"tensor": {"dtype": "DT_FLOAT", "tensorShape": {}}}}}, {"name": "StatefulPartitionedCall/model/sequential_4/dense_9/Gelu/add/x", "op": "Const", "attr": {"value": {"tensor": {"dtype": "DT_FLOAT", "tensorShape": {}}}, "dtype": {"type": "DT_FLOAT"}}}, {"name": "StatefulPartitionedCall/model/sequential_4/dense_9/Tensordot/Const", "op": "Const", "attr": {"dtype": {"type": "DT_INT32"}, "value": {"tensor": {"dtype": "DT_INT32", "tensorShape": {"dim": [{"size": "1"}]}}}}}, {"name": "StatefulPartitionedCall/model/sequential_4/dense_9/Tensordot/axes", "op": "Const", "attr": {"dtype": {"type": "DT_INT32"}, "value": {"tensor": {"dtype": "DT_INT32", "tensorShape": {"dim": [{"size": "1"}]}}}}}, {"name": "StatefulPartitionedCall/model/sequential_4/dense_9/Tensordot/GatherV2_1/axis", "op": "Const", "attr": {"dtype": {"type": "DT_INT32"}, "value": {"tensor": {"dtype": "DT_INT32", "tensorShape": {}}}}}, {"name": "StatefulPartitionedCall/model/sequential_4/dense_9/Tensordot/Const_1", "op": "Const", "attr": {"value": {"tensor": {"dtype": "DT_INT32", "tensorShape": {"dim": [{"size": "1"}]}}}, "dtype": {"type": "DT_INT32"}}}, {"name": "StatefulPartitionedCall/model/sequential_4/dense_9/Tensordot/ReadVariableOp", "op": "Const", "attr": {"dtype": {"type": "DT_FLOAT"}, "value": {"tensor": {"dtype": "DT_FLOAT", "tensorShape": {"dim": [{"size": "512"}, {"size": "128"}]}}}}}, {"name": "StatefulPartitionedCall/model/sequential_4/dense_8/Gelu/mul/x", "op": "Const", "attr": {"value": {"tensor": {"dtype": "DT_FLOAT", "tensorShape": {}}}, "dtype": {"type": "DT_FLOAT"}}}, {"name": "StatefulPartitionedCall/model/sequential_4/dense_8/Gelu/add/x", "op": "Const", "attr": {"value": {"tensor": {"dtype": "DT_FLOAT", "tensorShape": {}}}, "dtype": {"type": "DT_FLOAT"}}}, {"name": "StatefulPartitionedCall/model/sequential_4/dense_8/Tensordot/Const", "op": "Const", "attr": {"dtype": {"type": "DT_INT32"}, "value": {"tensor": {"dtype": "DT_INT32", "tensorShape": {"dim": [{"size": "1"}]}}}}}, {"name": "StatefulPartitionedCall/model/sequential_4/dense_8/Tensordot/axes", "op": "Const", "attr": {"value": {"tensor": {"dtype": "DT_INT32", "tensorShape": {"dim": [{"size": "1"}]}}}, "dtype": {"type": "DT_INT32"}}}, {"name": "StatefulPartitionedCall/model/sequential_4/dense_8/Tensordot/GatherV2_1/axis", "op": "Const", "attr": {"value": {"tensor": {"dtype": "DT_INT32", "tensorShape": {}}}, "dtype": {"type": "DT_INT32"}}}, {"name": "StatefulPartitionedCall/model/sequential_4/dense_8/Tensordot/Const_1", "op": "Const", "attr": {"dtype": {"type": "DT_INT32"}, "value": {"tensor": {"dtype": "DT_INT32", "tensorShape": {"dim": [{"size": "1"}]}}}}}, {"name": "StatefulPartitionedCall/model/sequential_4/dense_8/Tensordot/ReadVariableOp", "op": "Const", "attr": {"value": {"tensor": {"dtype": "DT_FLOAT", "tensorShape": {"dim": [{"size": "128"}, {"size": "512"}]}}}, "dtype": {"type": "DT_FLOAT"}}}, {"name": "StatefulPartitionedCall/model/layer_normalization_9/batchnorm/ReadVariableOp", "op": "Const", "attr": {"dtype": {"type": "DT_FLOAT"}, "value": {"tensor": {"dtype": "DT_FLOAT", "tensorShape": {"dim": [{"size": "128"}]}}}}}, {"name": "StatefulPartitionedCall/model/layer_normalization_9/moments/mean/reduction_indices", "op": "Const", "attr": {"dtype": {"type": "DT_INT32"}, "value": {"tensor": {"dtype": "DT_INT32", "tensorShape": {"dim": [{"size": "1"}]}}}}}, {"name": "StatefulPartitionedCall/model/layer_normalization_9/moments/variance/reduction_indices", "op": "Const", "attr": {"value": {"tensor": {"dtype": "DT_INT32", "tensorShape": {"dim": [{"size": "1"}]}}}, "dtype": {"type": "DT_INT32"}}}, {"name": "StatefulPartitionedCall/model/layer_normalization_9/batchnorm/add/y", "op": "Const", "attr": {"dtype": {"type": "DT_FLOAT"}, "value": {"tensor": {"dtype": "DT_FLOAT", "tensorShape": {}}}}}, {"name": "StatefulPartitionedCall/model/layer_normalization_9/batchnorm/mul/ReadVariableOp", "op": "Const", "attr": {"value": {"tensor": {"dtype": "DT_FLOAT", "tensorShape": {"dim": [{"size": "128"}]}}}, "dtype": {"type": "DT_FLOAT"}}}, {"name": "StatefulPartitionedCall/model/sequential_4/dense_8/Tensordot/free", "op": "Const", "attr": {"value": {"tensor": {"dtype": "DT_INT32", "tensorShape": {"dim": [{"size": "2"}]}}}, "dtype": {"type": "DT_INT32"}}}, {"name": "StatefulPartitionedCall/model/sequential_4/dense_8/Tensordot/GatherV2/axis", "op": "Const", "attr": {"value": {"tensor": {"dtype": "DT_INT32", "tensorShape": {}}}, "dtype": {"type": "DT_INT32"}}}, {"name": "StatefulPartitionedCall/model/sequential_4/dense_8/Tensordot/Const_2", "op": "Const", "attr": {"dtype": {"type": "DT_INT32"}, "value": {"tensor": {"dtype": "DT_INT32", "tensorShape": {"dim": [{"size": "1"}]}}}}}, {"name": "StatefulPartitionedCall/model/sequential_4/dense_8/Tensordot/concat_1/axis", "op": "Const", "attr": {"dtype": {"type": "DT_INT32"}, "value": {"tensor": {"dtype": "DT_INT32", "tensorShape": {}}}}}, {"name": "StatefulPartitionedCall/model/sequential_4/dense_8/BiasAdd/ReadVariableOp", "op": "Const", "attr": {"dtype": {"type": "DT_FLOAT"}, "value": {"tensor": {"dtype": "DT_FLOAT", "tensorShape": {"dim": [{"size": "512"}]}}}}}, {"name": "ConstantFolding/StatefulPartitionedCall/model/sequential_4/dense_8/Gelu/truediv_recip", "op": "Const", "attr": {"value": {"tensor": {"dtype": "DT_FLOAT", "tensorShape": {}}}, "dtype": {"type": "DT_FLOAT"}}}, {"name": "StatefulPartitionedCall/model/sequential_4/dense_9/Tensordot/free", "op": "Const", "attr": {"dtype": {"type": "DT_INT32"}, "value": {"tensor": {"dtype": "DT_INT32", "tensorShape": {"dim": [{"size": "2"}]}}}}}, {"name": "StatefulPartitionedCall/model/sequential_4/dense_9/Tensordot/GatherV2/axis", "op": "Const", "attr": {"dtype": {"type": "DT_INT32"}, "value": {"tensor": {"dtype": "DT_INT32", "tensorShape": {}}}}}, {"name": "StatefulPartitionedCall/model/sequential_4/dense_9/Tensordot/Const_2", "op": "Const", "attr": {"value": {"tensor": {"dtype": "DT_INT32", "tensorShape": {"dim": [{"size": "1"}]}}}, "dtype": {"type": "DT_INT32"}}}, {"name": "StatefulPartitionedCall/model/sequential_4/dense_9/Tensordot/concat_1/axis", "op": "Const", "attr": {"value": {"tensor": {"dtype": "DT_INT32", "tensorShape": {}}}, "dtype": {"type": "DT_INT32"}}}, {"name": "StatefulPartitionedCall/model/sequential_4/dense_9/BiasAdd/ReadVariableOp", "op": "Const", "attr": {"dtype": {"type": "DT_FLOAT"}, "value": {"tensor": {"dtype": "DT_FLOAT", "tensorShape": {"dim": [{"size": "128"}]}}}}}, {"name": "ConstantFolding/StatefulPartitionedCall/model/sequential_4/dense_9/Gelu/truediv_recip", "op": "Const", "attr": {"dtype": {"type": "DT_FLOAT"}, "value": {"tensor": {"dtype": "DT_FLOAT", "tensorShape": {}}}}}, {"name": "StatefulPartitionedCall/model/multi_head_attention_4/attention_output/add/ReadVariableOp", "op": "Const", "attr": {"dtype": {"type": "DT_FLOAT"}, "value": {"tensor": {"dtype": "DT_FLOAT", "tensorShape": {"dim": [{"size": "128"}]}}}}}, {"name": "StatefulPartitionedCall/model/multi_head_attention_4/key/einsum/Einsum/ReadVariableOp", "op": "Const", "attr": {"value": {"tensor": {"dtype": "DT_FLOAT", "tensorShape": {"dim": [{"size": "128"}, {"size": "8"}, {"size": "16"}]}}}, "dtype": {"type": "DT_FLOAT"}}}, {"name": "StatefulPartitionedCall/model/multi_head_attention_4/key/add/ReadVariableOp", "op": "Const", "attr": {"dtype": {"type": "DT_FLOAT"}, "value": {"tensor": {"dtype": "DT_FLOAT", "tensorShape": {"dim": [{"size": "8"}, {"size": "16"}]}}}}}, {"name": "StatefulPartitionedCall/model/multi_head_attention_4/query/einsum/Einsum/ReadVariableOp", "op": "Const", "attr": {"dtype": {"type": "DT_FLOAT"}, "value": {"tensor": {"dtype": "DT_FLOAT", "tensorShape": {"dim": [{"size": "128"}, {"size": "8"}, {"size": "16"}]}}}}}, {"name": "StatefulPartitionedCall/model/multi_head_attention_4/query/add/ReadVariableOp", "op": "Const", "attr": {"dtype": {"type": "DT_FLOAT"}, "value": {"tensor": {"dtype": "DT_FLOAT", "tensorShape": {"dim": [{"size": "8"}, {"size": "16"}]}}}}}, {"name": "StatefulPartitionedCall/model/multi_head_attention_4/Mul/y", "op": "Const", "attr": {"value": {"tensor": {"dtype": "DT_FLOAT", "tensorShape": {}}}, "dtype": {"type": "DT_FLOAT"}}}, {"name": "StatefulPartitionedCall/model/layer_normalization_8/batchnorm/ReadVariableOp", "op": "Const", "attr": {"dtype": {"type": "DT_FLOAT"}, "value": {"tensor": {"dtype": "DT_FLOAT", "tensorShape": {"dim": [{"size": "128"}]}}}}}, {"name": "StatefulPartitionedCall/model/layer_normalization_8/moments/mean/reduction_indices", "op": "Const", "attr": {"dtype": {"type": "DT_INT32"}, "value": {"tensor": {"dtype": "DT_INT32", "tensorShape": {"dim": [{"size": "1"}]}}}}}, {"name": "StatefulPartitionedCall/model/layer_normalization_8/moments/variance/reduction_indices", "op": "Const", "attr": {"dtype": {"type": "DT_INT32"}, "value": {"tensor": {"dtype": "DT_INT32", "tensorShape": {"dim": [{"size": "1"}]}}}}}, {"name": "StatefulPartitionedCall/model/layer_normalization_8/batchnorm/add/y", "op": "Const", "attr": {"dtype": {"type": "DT_FLOAT"}, "value": {"tensor": {"dtype": "DT_FLOAT", "tensorShape": {}}}}}, {"name": "StatefulPartitionedCall/model/layer_normalization_8/batchnorm/mul/ReadVariableOp", "op": "Const", "attr": {"dtype": {"type": "DT_FLOAT"}, "value": {"tensor": {"dtype": "DT_FLOAT", "tensorShape": {"dim": [{"size": "128"}]}}}}}, {"name": "StatefulPartitionedCall/model/multi_head_attention_4/value/einsum/Einsum/ReadVariableOp", "op": "Const", "attr": {"dtype": {"type": "DT_FLOAT"}, "value": {"tensor": {"dtype": "DT_FLOAT", "tensorShape": {"dim": [{"size": "128"}, {"size": "8"}, {"size": "16"}]}}}}}, {"name": "StatefulPartitionedCall/model/multi_head_attention_4/value/add/ReadVariableOp", "op": "Const", "attr": {"dtype": {"type": "DT_FLOAT"}, "value": {"tensor": {"dtype": "DT_FLOAT", "tensorShape": {"dim": [{"size": "8"}, {"size": "16"}]}}}}}, {"name": "StatefulPartitionedCall/model/multi_head_attention_4/attention_output/einsum/Einsum/ReadVariableOp", "op": "Const", "attr": {"value": {"tensor": {"dtype": "DT_FLOAT", "tensorShape": {"dim": [{"size": "8"}, {"size": "16"}, {"size": "128"}]}}}, "dtype": {"type": "DT_FLOAT"}}}, {"name": "StatefulPartitionedCall/model/sequential_3/dense_7/Gelu/mul/x", "op": "Const", "attr": {"dtype": {"type": "DT_FLOAT"}, "value": {"tensor": {"dtype": "DT_FLOAT", "tensorShape": {}}}}}, {"name": "StatefulPartitionedCall/model/sequential_3/dense_7/Gelu/add/x", "op": "Const", "attr": {"value": {"tensor": {"dtype": "DT_FLOAT", "tensorShape": {}}}, "dtype": {"type": "DT_FLOAT"}}}, {"name": "StatefulPartitionedCall/model/sequential_3/dense_7/Tensordot/Const", "op": "Const", "attr": {"dtype": {"type": "DT_INT32"}, "value": {"tensor": {"dtype": "DT_INT32", "tensorShape": {"dim": [{"size": "1"}]}}}}}, {"name": "StatefulPartitionedCall/model/sequential_3/dense_7/Tensordot/axes", "op": "Const", "attr": {"value": {"tensor": {"dtype": "DT_INT32", "tensorShape": {"dim": [{"size": "1"}]}}}, "dtype": {"type": "DT_INT32"}}}, {"name": "StatefulPartitionedCall/model/sequential_3/dense_7/Tensordot/GatherV2_1/axis", "op": "Const", "attr": {"dtype": {"type": "DT_INT32"}, "value": {"tensor": {"dtype": "DT_INT32", "tensorShape": {}}}}}, {"name": "StatefulPartitionedCall/model/sequential_3/dense_7/Tensordot/Const_1", "op": "Const", "attr": {"dtype": {"type": "DT_INT32"}, "value": {"tensor": {"dtype": "DT_INT32", "tensorShape": {"dim": [{"size": "1"}]}}}}}, {"name": "StatefulPartitionedCall/model/sequential_3/dense_7/Tensordot/ReadVariableOp", "op": "Const", "attr": {"value": {"tensor": {"dtype": "DT_FLOAT", "tensorShape": {"dim": [{"size": "512"}, {"size": "128"}]}}}, "dtype": {"type": "DT_FLOAT"}}}, {"name": "StatefulPartitionedCall/model/sequential_3/dense_6/Gelu/mul/x", "op": "Const", "attr": {"value": {"tensor": {"dtype": "DT_FLOAT", "tensorShape": {}}}, "dtype": {"type": "DT_FLOAT"}}}, {"name": "StatefulPartitionedCall/model/sequential_3/dense_6/Gelu/add/x", "op": "Const", "attr": {"dtype": {"type": "DT_FLOAT"}, "value": {"tensor": {"dtype": "DT_FLOAT", "tensorShape": {}}}}}, {"name": "StatefulPartitionedCall/model/sequential_3/dense_6/Tensordot/Const", "op": "Const", "attr": {"value": {"tensor": {"dtype": "DT_INT32", "tensorShape": {"dim": [{"size": "1"}]}}}, "dtype": {"type": "DT_INT32"}}}, {"name": "StatefulPartitionedCall/model/sequential_3/dense_6/Tensordot/axes", "op": "Const", "attr": {"dtype": {"type": "DT_INT32"}, "value": {"tensor": {"dtype": "DT_INT32", "tensorShape": {"dim": [{"size": "1"}]}}}}}, {"name": "StatefulPartitionedCall/model/sequential_3/dense_6/Tensordot/GatherV2_1/axis", "op": "Const", "attr": {"dtype": {"type": "DT_INT32"}, "value": {"tensor": {"dtype": "DT_INT32", "tensorShape": {}}}}}, {"name": "StatefulPartitionedCall/model/sequential_3/dense_6/Tensordot/Const_1", "op": "Const", "attr": {"dtype": {"type": "DT_INT32"}, "value": {"tensor": {"dtype": "DT_INT32", "tensorShape": {"dim": [{"size": "1"}]}}}}}, {"name": "StatefulPartitionedCall/model/sequential_3/dense_6/Tensordot/ReadVariableOp", "op": "Const", "attr": {"value": {"tensor": {"dtype": "DT_FLOAT", "tensorShape": {"dim": [{"size": "128"}, {"size": "512"}]}}}, "dtype": {"type": "DT_FLOAT"}}}, {"name": "StatefulPartitionedCall/model/layer_normalization_7/batchnorm/ReadVariableOp", "op": "Const", "attr": {"value": {"tensor": {"dtype": "DT_FLOAT", "tensorShape": {"dim": [{"size": "128"}]}}}, "dtype": {"type": "DT_FLOAT"}}}, {"name": "StatefulPartitionedCall/model/layer_normalization_7/moments/mean/reduction_indices", "op": "Const", "attr": {"dtype": {"type": "DT_INT32"}, "value": {"tensor": {"dtype": "DT_INT32", "tensorShape": {"dim": [{"size": "1"}]}}}}}, {"name": "StatefulPartitionedCall/model/layer_normalization_7/moments/variance/reduction_indices", "op": "Const", "attr": {"value": {"tensor": {"dtype": "DT_INT32", "tensorShape": {"dim": [{"size": "1"}]}}}, "dtype": {"type": "DT_INT32"}}}, {"name": "StatefulPartitionedCall/model/layer_normalization_7/batchnorm/add/y", "op": "Const", "attr": {"value": {"tensor": {"dtype": "DT_FLOAT", "tensorShape": {}}}, "dtype": {"type": "DT_FLOAT"}}}, {"name": "StatefulPartitionedCall/model/layer_normalization_7/batchnorm/mul/ReadVariableOp", "op": "Const", "attr": {"dtype": {"type": "DT_FLOAT"}, "value": {"tensor": {"dtype": "DT_FLOAT", "tensorShape": {"dim": [{"size": "128"}]}}}}}, {"name": "StatefulPartitionedCall/model/sequential_3/dense_6/Tensordot/free", "op": "Const", "attr": {"dtype": {"type": "DT_INT32"}, "value": {"tensor": {"dtype": "DT_INT32", "tensorShape": {"dim": [{"size": "2"}]}}}}}, {"name": "StatefulPartitionedCall/model/sequential_3/dense_6/Tensordot/GatherV2/axis", "op": "Const", "attr": {"dtype": {"type": "DT_INT32"}, "value": {"tensor": {"dtype": "DT_INT32", "tensorShape": {}}}}}, {"name": "StatefulPartitionedCall/model/sequential_3/dense_6/Tensordot/Const_2", "op": "Const", "attr": {"value": {"tensor": {"dtype": "DT_INT32", "tensorShape": {"dim": [{"size": "1"}]}}}, "dtype": {"type": "DT_INT32"}}}, {"name": "StatefulPartitionedCall/model/sequential_3/dense_6/Tensordot/concat_1/axis", "op": "Const", "attr": {"dtype": {"type": "DT_INT32"}, "value": {"tensor": {"dtype": "DT_INT32", "tensorShape": {}}}}}, {"name": "StatefulPartitionedCall/model/sequential_3/dense_6/BiasAdd/ReadVariableOp", "op": "Const", "attr": {"value": {"tensor": {"dtype": "DT_FLOAT", "tensorShape": {"dim": [{"size": "512"}]}}}, "dtype": {"type": "DT_FLOAT"}}}, {"name": "ConstantFolding/StatefulPartitionedCall/model/sequential_3/dense_6/Gelu/truediv_recip", "op": "Const", "attr": {"dtype": {"type": "DT_FLOAT"}, "value": {"tensor": {"dtype": "DT_FLOAT", "tensorShape": {}}}}}, {"name": "StatefulPartitionedCall/model/sequential_3/dense_7/Tensordot/free", "op": "Const", "attr": {"dtype": {"type": "DT_INT32"}, "value": {"tensor": {"dtype": "DT_INT32", "tensorShape": {"dim": [{"size": "2"}]}}}}}, {"name": "StatefulPartitionedCall/model/sequential_3/dense_7/Tensordot/GatherV2/axis", "op": "Const", "attr": {"value": {"tensor": {"dtype": "DT_INT32", "tensorShape": {}}}, "dtype": {"type": "DT_INT32"}}}, {"name": "StatefulPartitionedCall/model/sequential_3/dense_7/Tensordot/Const_2", "op": "Const", "attr": {"value": {"tensor": {"dtype": "DT_INT32", "tensorShape": {"dim": [{"size": "1"}]}}}, "dtype": {"type": "DT_INT32"}}}, {"name": "StatefulPartitionedCall/model/sequential_3/dense_7/Tensordot/concat_1/axis", "op": "Const", "attr": {"value": {"tensor": {"dtype": "DT_INT32", "tensorShape": {}}}, "dtype": {"type": "DT_INT32"}}}, {"name": "StatefulPartitionedCall/model/sequential_3/dense_7/BiasAdd/ReadVariableOp", "op": "Const", "attr": {"value": {"tensor": {"dtype": "DT_FLOAT", "tensorShape": {"dim": [{"size": "128"}]}}}, "dtype": {"type": "DT_FLOAT"}}}, {"name": "ConstantFolding/StatefulPartitionedCall/model/sequential_3/dense_7/Gelu/truediv_recip", "op": "Const", "attr": {"value": {"tensor": {"dtype": "DT_FLOAT", "tensorShape": {}}}, "dtype": {"type": "DT_FLOAT"}}}, {"name": "StatefulPartitionedCall/model/multi_head_attention_3/attention_output/add/ReadVariableOp", "op": "Const", "attr": {"value": {"tensor": {"dtype": "DT_FLOAT", "tensorShape": {"dim": [{"size": "128"}]}}}, "dtype": {"type": "DT_FLOAT"}}}, {"name": "StatefulPartitionedCall/model/multi_head_attention_3/key/einsum/Einsum/ReadVariableOp", "op": "Const", "attr": {"dtype": {"type": "DT_FLOAT"}, "value": {"tensor": {"dtype": "DT_FLOAT", "tensorShape": {"dim": [{"size": "128"}, {"size": "8"}, {"size": "16"}]}}}}}, {"name": "StatefulPartitionedCall/model/multi_head_attention_3/key/add/ReadVariableOp", "op": "Const", "attr": {"value": {"tensor": {"dtype": "DT_FLOAT", "tensorShape": {"dim": [{"size": "8"}, {"size": "16"}]}}}, "dtype": {"type": "DT_FLOAT"}}}, {"name": "StatefulPartitionedCall/model/multi_head_attention_3/query/einsum/Einsum/ReadVariableOp", "op": "Const", "attr": {"value": {"tensor": {"dtype": "DT_FLOAT", "tensorShape": {"dim": [{"size": "128"}, {"size": "8"}, {"size": "16"}]}}}, "dtype": {"type": "DT_FLOAT"}}}, {"name": "StatefulPartitionedCall/model/multi_head_attention_3/query/add/ReadVariableOp", "op": "Const", "attr": {"dtype": {"type": "DT_FLOAT"}, "value": {"tensor": {"dtype": "DT_FLOAT", "tensorShape": {"dim": [{"size": "8"}, {"size": "16"}]}}}}}, {"name": "StatefulPartitionedCall/model/multi_head_attention_3/Mul/y", "op": "Const", "attr": {"value": {"tensor": {"dtype": "DT_FLOAT", "tensorShape": {}}}, "dtype": {"type": "DT_FLOAT"}}}, {"name": "StatefulPartitionedCall/model/layer_normalization_6/batchnorm/ReadVariableOp", "op": "Const", "attr": {"dtype": {"type": "DT_FLOAT"}, "value": {"tensor": {"dtype": "DT_FLOAT", "tensorShape": {"dim": [{"size": "128"}]}}}}}, {"name": "StatefulPartitionedCall/model/layer_normalization_6/moments/mean/reduction_indices", "op": "Const", "attr": {"value": {"tensor": {"dtype": "DT_INT32", "tensorShape": {"dim": [{"size": "1"}]}}}, "dtype": {"type": "DT_INT32"}}}, {"name": "StatefulPartitionedCall/model/layer_normalization_6/moments/variance/reduction_indices", "op": "Const", "attr": {"value": {"tensor": {"dtype": "DT_INT32", "tensorShape": {"dim": [{"size": "1"}]}}}, "dtype": {"type": "DT_INT32"}}}, {"name": "StatefulPartitionedCall/model/layer_normalization_6/batchnorm/add/y", "op": "Const", "attr": {"dtype": {"type": "DT_FLOAT"}, "value": {"tensor": {"dtype": "DT_FLOAT", "tensorShape": {}}}}}, {"name": "StatefulPartitionedCall/model/layer_normalization_6/batchnorm/mul/ReadVariableOp", "op": "Const", "attr": {"value": {"tensor": {"dtype": "DT_FLOAT", "tensorShape": {"dim": [{"size": "128"}]}}}, "dtype": {"type": "DT_FLOAT"}}}, {"name": "StatefulPartitionedCall/model/multi_head_attention_3/value/einsum/Einsum/ReadVariableOp", "op": "Const", "attr": {"value": {"tensor": {"dtype": "DT_FLOAT", "tensorShape": {"dim": [{"size": "128"}, {"size": "8"}, {"size": "16"}]}}}, "dtype": {"type": "DT_FLOAT"}}}, {"name": "StatefulPartitionedCall/model/multi_head_attention_3/value/add/ReadVariableOp", "op": "Const", "attr": {"dtype": {"type": "DT_FLOAT"}, "value": {"tensor": {"dtype": "DT_FLOAT", "tensorShape": {"dim": [{"size": "8"}, {"size": "16"}]}}}}}, {"name": "StatefulPartitionedCall/model/multi_head_attention_3/attention_output/einsum/Einsum/ReadVariableOp", "op": "Const", "attr": {"dtype": {"type": "DT_FLOAT"}, "value": {"tensor": {"dtype": "DT_FLOAT", "tensorShape": {"dim": [{"size": "8"}, {"size": "16"}, {"size": "128"}]}}}}}, {"name": "StatefulPartitionedCall/model/sequential_2/dense_5/Gelu/mul/x", "op": "Const", "attr": {"value": {"tensor": {"dtype": "DT_FLOAT", "tensorShape": {}}}, "dtype": {"type": "DT_FLOAT"}}}, {"name": "StatefulPartitionedCall/model/sequential_2/dense_5/Gelu/add/x", "op": "Const", "attr": {"dtype": {"type": "DT_FLOAT"}, "value": {"tensor": {"dtype": "DT_FLOAT", "tensorShape": {}}}}}, {"name": "StatefulPartitionedCall/model/sequential_2/dense_5/Tensordot/Const", "op": "Const", "attr": {"value": {"tensor": {"dtype": "DT_INT32", "tensorShape": {"dim": [{"size": "1"}]}}}, "dtype": {"type": "DT_INT32"}}}, {"name": "StatefulPartitionedCall/model/sequential_2/dense_5/Tensordot/axes", "op": "Const", "attr": {"dtype": {"type": "DT_INT32"}, "value": {"tensor": {"dtype": "DT_INT32", "tensorShape": {"dim": [{"size": "1"}]}}}}}, {"name": "StatefulPartitionedCall/model/sequential_2/dense_5/Tensordot/GatherV2_1/axis", "op": "Const", "attr": {"value": {"tensor": {"dtype": "DT_INT32", "tensorShape": {}}}, "dtype": {"type": "DT_INT32"}}}, {"name": "StatefulPartitionedCall/model/sequential_2/dense_5/Tensordot/Const_1", "op": "Const", "attr": {"dtype": {"type": "DT_INT32"}, "value": {"tensor": {"dtype": "DT_INT32", "tensorShape": {"dim": [{"size": "1"}]}}}}}, {"name": "StatefulPartitionedCall/model/sequential_2/dense_5/Tensordot/ReadVariableOp", "op": "Const", "attr": {"dtype": {"type": "DT_FLOAT"}, "value": {"tensor": {"dtype": "DT_FLOAT", "tensorShape": {"dim": [{"size": "512"}, {"size": "128"}]}}}}}, {"name": "StatefulPartitionedCall/model/sequential_2/dense_4/Gelu/mul/x", "op": "Const", "attr": {"value": {"tensor": {"dtype": "DT_FLOAT", "tensorShape": {}}}, "dtype": {"type": "DT_FLOAT"}}}, {"name": "StatefulPartitionedCall/model/sequential_2/dense_4/Gelu/add/x", "op": "Const", "attr": {"dtype": {"type": "DT_FLOAT"}, "value": {"tensor": {"dtype": "DT_FLOAT", "tensorShape": {}}}}}, {"name": "StatefulPartitionedCall/model/sequential_2/dense_4/Tensordot/Const", "op": "Const", "attr": {"value": {"tensor": {"dtype": "DT_INT32", "tensorShape": {"dim": [{"size": "1"}]}}}, "dtype": {"type": "DT_INT32"}}}, {"name": "StatefulPartitionedCall/model/sequential_2/dense_4/Tensordot/axes", "op": "Const", "attr": {"value": {"tensor": {"dtype": "DT_INT32", "tensorShape": {"dim": [{"size": "1"}]}}}, "dtype": {"type": "DT_INT32"}}}, {"name": "StatefulPartitionedCall/model/sequential_2/dense_4/Tensordot/GatherV2_1/axis", "op": "Const", "attr": {"value": {"tensor": {"dtype": "DT_INT32", "tensorShape": {}}}, "dtype": {"type": "DT_INT32"}}}, {"name": "StatefulPartitionedCall/model/sequential_2/dense_4/Tensordot/Const_1", "op": "Const", "attr": {"value": {"tensor": {"dtype": "DT_INT32", "tensorShape": {"dim": [{"size": "1"}]}}}, "dtype": {"type": "DT_INT32"}}}, {"name": "StatefulPartitionedCall/model/sequential_2/dense_4/Tensordot/ReadVariableOp", "op": "Const", "attr": {"dtype": {"type": "DT_FLOAT"}, "value": {"tensor": {"dtype": "DT_FLOAT", "tensorShape": {"dim": [{"size": "128"}, {"size": "512"}]}}}}}, {"name": "StatefulPartitionedCall/model/layer_normalization_5/batchnorm/ReadVariableOp", "op": "Const", "attr": {"value": {"tensor": {"dtype": "DT_FLOAT", "tensorShape": {"dim": [{"size": "128"}]}}}, "dtype": {"type": "DT_FLOAT"}}}, {"name": "StatefulPartitionedCall/model/layer_normalization_5/moments/mean/reduction_indices", "op": "Const", "attr": {"dtype": {"type": "DT_INT32"}, "value": {"tensor": {"dtype": "DT_INT32", "tensorShape": {"dim": [{"size": "1"}]}}}}}, {"name": "StatefulPartitionedCall/model/layer_normalization_5/moments/variance/reduction_indices", "op": "Const", "attr": {"value": {"tensor": {"dtype": "DT_INT32", "tensorShape": {"dim": [{"size": "1"}]}}}, "dtype": {"type": "DT_INT32"}}}, {"name": "StatefulPartitionedCall/model/layer_normalization_5/batchnorm/add/y", "op": "Const", "attr": {"value": {"tensor": {"dtype": "DT_FLOAT", "tensorShape": {}}}, "dtype": {"type": "DT_FLOAT"}}}, {"name": "StatefulPartitionedCall/model/layer_normalization_5/batchnorm/mul/ReadVariableOp", "op": "Const", "attr": {"dtype": {"type": "DT_FLOAT"}, "value": {"tensor": {"dtype": "DT_FLOAT", "tensorShape": {"dim": [{"size": "128"}]}}}}}, {"name": "StatefulPartitionedCall/model/sequential_2/dense_4/Tensordot/free", "op": "Const", "attr": {"value": {"tensor": {"dtype": "DT_INT32", "tensorShape": {"dim": [{"size": "2"}]}}}, "dtype": {"type": "DT_INT32"}}}, {"name": "StatefulPartitionedCall/model/sequential_2/dense_4/Tensordot/GatherV2/axis", "op": "Const", "attr": {"value": {"tensor": {"dtype": "DT_INT32", "tensorShape": {}}}, "dtype": {"type": "DT_INT32"}}}, {"name": "StatefulPartitionedCall/model/sequential_2/dense_4/Tensordot/Const_2", "op": "Const", "attr": {"value": {"tensor": {"dtype": "DT_INT32", "tensorShape": {"dim": [{"size": "1"}]}}}, "dtype": {"type": "DT_INT32"}}}, {"name": "StatefulPartitionedCall/model/sequential_2/dense_4/Tensordot/concat_1/axis", "op": "Const", "attr": {"dtype": {"type": "DT_INT32"}, "value": {"tensor": {"dtype": "DT_INT32", "tensorShape": {}}}}}, {"name": "StatefulPartitionedCall/model/sequential_2/dense_4/BiasAdd/ReadVariableOp", "op": "Const", "attr": {"dtype": {"type": "DT_FLOAT"}, "value": {"tensor": {"dtype": "DT_FLOAT", "tensorShape": {"dim": [{"size": "512"}]}}}}}, {"name": "ConstantFolding/StatefulPartitionedCall/model/sequential_2/dense_4/Gelu/truediv_recip", "op": "Const", "attr": {"value": {"tensor": {"dtype": "DT_FLOAT", "tensorShape": {}}}, "dtype": {"type": "DT_FLOAT"}}}, {"name": "StatefulPartitionedCall/model/sequential_2/dense_5/Tensordot/free", "op": "Const", "attr": {"dtype": {"type": "DT_INT32"}, "value": {"tensor": {"dtype": "DT_INT32", "tensorShape": {"dim": [{"size": "2"}]}}}}}, {"name": "StatefulPartitionedCall/model/sequential_2/dense_5/Tensordot/GatherV2/axis", "op": "Const", "attr": {"value": {"tensor": {"dtype": "DT_INT32", "tensorShape": {}}}, "dtype": {"type": "DT_INT32"}}}, {"name": "StatefulPartitionedCall/model/sequential_2/dense_5/Tensordot/Const_2", "op": "Const", "attr": {"value": {"tensor": {"dtype": "DT_INT32", "tensorShape": {"dim": [{"size": "1"}]}}}, "dtype": {"type": "DT_INT32"}}}, {"name": "StatefulPartitionedCall/model/sequential_2/dense_5/Tensordot/concat_1/axis", "op": "Const", "attr": {"dtype": {"type": "DT_INT32"}, "value": {"tensor": {"dtype": "DT_INT32", "tensorShape": {}}}}}, {"name": "StatefulPartitionedCall/model/sequential_2/dense_5/BiasAdd/ReadVariableOp", "op": "Const", "attr": {"dtype": {"type": "DT_FLOAT"}, "value": {"tensor": {"dtype": "DT_FLOAT", "tensorShape": {"dim": [{"size": "128"}]}}}}}, {"name": "ConstantFolding/StatefulPartitionedCall/model/sequential_2/dense_5/Gelu/truediv_recip", "op": "Const", "attr": {"dtype": {"type": "DT_FLOAT"}, "value": {"tensor": {"dtype": "DT_FLOAT", "tensorShape": {}}}}}, {"name": "StatefulPartitionedCall/model/multi_head_attention_2/attention_output/add/ReadVariableOp", "op": "Const", "attr": {"dtype": {"type": "DT_FLOAT"}, "value": {"tensor": {"dtype": "DT_FLOAT", "tensorShape": {"dim": [{"size": "128"}]}}}}}, {"name": "StatefulPartitionedCall/model/multi_head_attention_2/key/einsum/Einsum/ReadVariableOp", "op": "Const", "attr": {"dtype": {"type": "DT_FLOAT"}, "value": {"tensor": {"dtype": "DT_FLOAT", "tensorShape": {"dim": [{"size": "128"}, {"size": "8"}, {"size": "16"}]}}}}}, {"name": "StatefulPartitionedCall/model/multi_head_attention_2/key/add/ReadVariableOp", "op": "Const", "attr": {"dtype": {"type": "DT_FLOAT"}, "value": {"tensor": {"dtype": "DT_FLOAT", "tensorShape": {"dim": [{"size": "8"}, {"size": "16"}]}}}}}, {"name": "StatefulPartitionedCall/model/multi_head_attention_2/query/einsum/Einsum/ReadVariableOp", "op": "Const", "attr": {"dtype": {"type": "DT_FLOAT"}, "value": {"tensor": {"dtype": "DT_FLOAT", "tensorShape": {"dim": [{"size": "128"}, {"size": "8"}, {"size": "16"}]}}}}}, {"name": "StatefulPartitionedCall/model/multi_head_attention_2/query/add/ReadVariableOp", "op": "Const", "attr": {"dtype": {"type": "DT_FLOAT"}, "value": {"tensor": {"dtype": "DT_FLOAT", "tensorShape": {"dim": [{"size": "8"}, {"size": "16"}]}}}}}, {"name": "StatefulPartitionedCall/model/multi_head_attention_2/Mul/y", "op": "Const", "attr": {"dtype": {"type": "DT_FLOAT"}, "value": {"tensor": {"dtype": "DT_FLOAT", "tensorShape": {}}}}}, {"name": "StatefulPartitionedCall/model/layer_normalization_4/batchnorm/ReadVariableOp", "op": "Const", "attr": {"dtype": {"type": "DT_FLOAT"}, "value": {"tensor": {"dtype": "DT_FLOAT", "tensorShape": {"dim": [{"size": "128"}]}}}}}, {"name": "StatefulPartitionedCall/model/layer_normalization_4/moments/mean/reduction_indices", "op": "Const", "attr": {"dtype": {"type": "DT_INT32"}, "value": {"tensor": {"dtype": "DT_INT32", "tensorShape": {"dim": [{"size": "1"}]}}}}}, {"name": "StatefulPartitionedCall/model/layer_normalization_4/moments/variance/reduction_indices", "op": "Const", "attr": {"dtype": {"type": "DT_INT32"}, "value": {"tensor": {"dtype": "DT_INT32", "tensorShape": {"dim": [{"size": "1"}]}}}}}, {"name": "StatefulPartitionedCall/model/layer_normalization_4/batchnorm/add/y", "op": "Const", "attr": {"dtype": {"type": "DT_FLOAT"}, "value": {"tensor": {"dtype": "DT_FLOAT", "tensorShape": {}}}}}, {"name": "StatefulPartitionedCall/model/layer_normalization_4/batchnorm/mul/ReadVariableOp", "op": "Const", "attr": {"dtype": {"type": "DT_FLOAT"}, "value": {"tensor": {"dtype": "DT_FLOAT", "tensorShape": {"dim": [{"size": "128"}]}}}}}, {"name": "StatefulPartitionedCall/model/multi_head_attention_2/value/einsum/Einsum/ReadVariableOp", "op": "Const", "attr": {"value": {"tensor": {"dtype": "DT_FLOAT", "tensorShape": {"dim": [{"size": "128"}, {"size": "8"}, {"size": "16"}]}}}, "dtype": {"type": "DT_FLOAT"}}}, {"name": "StatefulPartitionedCall/model/multi_head_attention_2/value/add/ReadVariableOp", "op": "Const", "attr": {"dtype": {"type": "DT_FLOAT"}, "value": {"tensor": {"dtype": "DT_FLOAT", "tensorShape": {"dim": [{"size": "8"}, {"size": "16"}]}}}}}, {"name": "StatefulPartitionedCall/model/multi_head_attention_2/attention_output/einsum/Einsum/ReadVariableOp", "op": "Const", "attr": {"dtype": {"type": "DT_FLOAT"}, "value": {"tensor": {"dtype": "DT_FLOAT", "tensorShape": {"dim": [{"size": "8"}, {"size": "16"}, {"size": "128"}]}}}}}, {"name": "StatefulPartitionedCall/model/sequential_1/dense_3/Gelu/mul/x", "op": "Const", "attr": {"dtype": {"type": "DT_FLOAT"}, "value": {"tensor": {"dtype": "DT_FLOAT", "tensorShape": {}}}}}, {"name": "StatefulPartitionedCall/model/sequential_1/dense_3/Gelu/add/x", "op": "Const", "attr": {"value": {"tensor": {"dtype": "DT_FLOAT", "tensorShape": {}}}, "dtype": {"type": "DT_FLOAT"}}}, {"name": "StatefulPartitionedCall/model/sequential_1/dense_3/Tensordot/Const", "op": "Const", "attr": {"value": {"tensor": {"dtype": "DT_INT32", "tensorShape": {"dim": [{"size": "1"}]}}}, "dtype": {"type": "DT_INT32"}}}, {"name": "StatefulPartitionedCall/model/sequential_1/dense_3/Tensordot/axes", "op": "Const", "attr": {"value": {"tensor": {"dtype": "DT_INT32", "tensorShape": {"dim": [{"size": "1"}]}}}, "dtype": {"type": "DT_INT32"}}}, {"name": "StatefulPartitionedCall/model/sequential_1/dense_3/Tensordot/GatherV2_1/axis", "op": "Const", "attr": {"dtype": {"type": "DT_INT32"}, "value": {"tensor": {"dtype": "DT_INT32", "tensorShape": {}}}}}, {"name": "StatefulPartitionedCall/model/sequential_1/dense_3/Tensordot/Const_1", "op": "Const", "attr": {"dtype": {"type": "DT_INT32"}, "value": {"tensor": {"dtype": "DT_INT32", "tensorShape": {"dim": [{"size": "1"}]}}}}}, {"name": "StatefulPartitionedCall/model/sequential_1/dense_3/Tensordot/ReadVariableOp", "op": "Const", "attr": {"value": {"tensor": {"dtype": "DT_FLOAT", "tensorShape": {"dim": [{"size": "512"}, {"size": "128"}]}}}, "dtype": {"type": "DT_FLOAT"}}}, {"name": "StatefulPartitionedCall/model/sequential_1/dense_2/Gelu/mul/x", "op": "Const", "attr": {"dtype": {"type": "DT_FLOAT"}, "value": {"tensor": {"dtype": "DT_FLOAT", "tensorShape": {}}}}}, {"name": "StatefulPartitionedCall/model/sequential_1/dense_2/Gelu/add/x", "op": "Const", "attr": {"value": {"tensor": {"dtype": "DT_FLOAT", "tensorShape": {}}}, "dtype": {"type": "DT_FLOAT"}}}, {"name": "StatefulPartitionedCall/model/sequential_1/dense_2/Tensordot/Const", "op": "Const", "attr": {"dtype": {"type": "DT_INT32"}, "value": {"tensor": {"dtype": "DT_INT32", "tensorShape": {"dim": [{"size": "1"}]}}}}}, {"name": "StatefulPartitionedCall/model/sequential_1/dense_2/Tensordot/axes", "op": "Const", "attr": {"dtype": {"type": "DT_INT32"}, "value": {"tensor": {"dtype": "DT_INT32", "tensorShape": {"dim": [{"size": "1"}]}}}}}, {"name": "StatefulPartitionedCall/model/sequential_1/dense_2/Tensordot/GatherV2_1/axis", "op": "Const", "attr": {"dtype": {"type": "DT_INT32"}, "value": {"tensor": {"dtype": "DT_INT32", "tensorShape": {}}}}}, {"name": "StatefulPartitionedCall/model/sequential_1/dense_2/Tensordot/Const_1", "op": "Const", "attr": {"dtype": {"type": "DT_INT32"}, "value": {"tensor": {"dtype": "DT_INT32", "tensorShape": {"dim": [{"size": "1"}]}}}}}, {"name": "StatefulPartitionedCall/model/sequential_1/dense_2/Tensordot/ReadVariableOp", "op": "Const", "attr": {"value": {"tensor": {"dtype": "DT_FLOAT", "tensorShape": {"dim": [{"size": "128"}, {"size": "512"}]}}}, "dtype": {"type": "DT_FLOAT"}}}, {"name": "StatefulPartitionedCall/model/layer_normalization_3/batchnorm/ReadVariableOp", "op": "Const", "attr": {"value": {"tensor": {"dtype": "DT_FLOAT", "tensorShape": {"dim": [{"size": "128"}]}}}, "dtype": {"type": "DT_FLOAT"}}}, {"name": "StatefulPartitionedCall/model/layer_normalization_3/moments/mean/reduction_indices", "op": "Const", "attr": {"value": {"tensor": {"dtype": "DT_INT32", "tensorShape": {"dim": [{"size": "1"}]}}}, "dtype": {"type": "DT_INT32"}}}, {"name": "StatefulPartitionedCall/model/layer_normalization_3/moments/variance/reduction_indices", "op": "Const", "attr": {"value": {"tensor": {"dtype": "DT_INT32", "tensorShape": {"dim": [{"size": "1"}]}}}, "dtype": {"type": "DT_INT32"}}}, {"name": "StatefulPartitionedCall/model/layer_normalization_3/batchnorm/add/y", "op": "Const", "attr": {"dtype": {"type": "DT_FLOAT"}, "value": {"tensor": {"dtype": "DT_FLOAT", "tensorShape": {}}}}}, {"name": "StatefulPartitionedCall/model/layer_normalization_3/batchnorm/mul/ReadVariableOp", "op": "Const", "attr": {"value": {"tensor": {"dtype": "DT_FLOAT", "tensorShape": {"dim": [{"size": "128"}]}}}, "dtype": {"type": "DT_FLOAT"}}}, {"name": "StatefulPartitionedCall/model/sequential_1/dense_2/Tensordot/free", "op": "Const", "attr": {"value": {"tensor": {"dtype": "DT_INT32", "tensorShape": {"dim": [{"size": "2"}]}}}, "dtype": {"type": "DT_INT32"}}}, {"name": "StatefulPartitionedCall/model/sequential_1/dense_2/Tensordot/GatherV2/axis", "op": "Const", "attr": {"dtype": {"type": "DT_INT32"}, "value": {"tensor": {"dtype": "DT_INT32", "tensorShape": {}}}}}, {"name": "StatefulPartitionedCall/model/sequential_1/dense_2/Tensordot/Const_2", "op": "Const", "attr": {"dtype": {"type": "DT_INT32"}, "value": {"tensor": {"dtype": "DT_INT32", "tensorShape": {"dim": [{"size": "1"}]}}}}}, {"name": "StatefulPartitionedCall/model/sequential_1/dense_2/Tensordot/concat_1/axis", "op": "Const", "attr": {"value": {"tensor": {"dtype": "DT_INT32", "tensorShape": {}}}, "dtype": {"type": "DT_INT32"}}}, {"name": "StatefulPartitionedCall/model/sequential_1/dense_2/BiasAdd/ReadVariableOp", "op": "Const", "attr": {"dtype": {"type": "DT_FLOAT"}, "value": {"tensor": {"dtype": "DT_FLOAT", "tensorShape": {"dim": [{"size": "512"}]}}}}}, {"name": "ConstantFolding/StatefulPartitionedCall/model/sequential_1/dense_2/Gelu/truediv_recip", "op": "Const", "attr": {"dtype": {"type": "DT_FLOAT"}, "value": {"tensor": {"dtype": "DT_FLOAT", "tensorShape": {}}}}}, {"name": "StatefulPartitionedCall/model/sequential_1/dense_3/Tensordot/free", "op": "Const", "attr": {"value": {"tensor": {"dtype": "DT_INT32", "tensorShape": {"dim": [{"size": "2"}]}}}, "dtype": {"type": "DT_INT32"}}}, {"name": "StatefulPartitionedCall/model/sequential_1/dense_3/Tensordot/GatherV2/axis", "op": "Const", "attr": {"value": {"tensor": {"dtype": "DT_INT32", "tensorShape": {}}}, "dtype": {"type": "DT_INT32"}}}, {"name": "StatefulPartitionedCall/model/sequential_1/dense_3/Tensordot/Const_2", "op": "Const", "attr": {"dtype": {"type": "DT_INT32"}, "value": {"tensor": {"dtype": "DT_INT32", "tensorShape": {"dim": [{"size": "1"}]}}}}}, {"name": "StatefulPartitionedCall/model/sequential_1/dense_3/Tensordot/concat_1/axis", "op": "Const", "attr": {"dtype": {"type": "DT_INT32"}, "value": {"tensor": {"dtype": "DT_INT32", "tensorShape": {}}}}}, {"name": "StatefulPartitionedCall/model/sequential_1/dense_3/BiasAdd/ReadVariableOp", "op": "Const", "attr": {"dtype": {"type": "DT_FLOAT"}, "value": {"tensor": {"dtype": "DT_FLOAT", "tensorShape": {"dim": [{"size": "128"}]}}}}}, {"name": "ConstantFolding/StatefulPartitionedCall/model/sequential_1/dense_3/Gelu/truediv_recip", "op": "Const", "attr": {"dtype": {"type": "DT_FLOAT"}, "value": {"tensor": {"dtype": "DT_FLOAT", "tensorShape": {}}}}}, {"name": "StatefulPartitionedCall/model/multi_head_attention_1/attention_output/add/ReadVariableOp", "op": "Const", "attr": {"dtype": {"type": "DT_FLOAT"}, "value": {"tensor": {"dtype": "DT_FLOAT", "tensorShape": {"dim": [{"size": "128"}]}}}}}, {"name": "StatefulPartitionedCall/model/multi_head_attention_1/key/einsum/Einsum/ReadVariableOp", "op": "Const", "attr": {"dtype": {"type": "DT_FLOAT"}, "value": {"tensor": {"dtype": "DT_FLOAT", "tensorShape": {"dim": [{"size": "128"}, {"size": "8"}, {"size": "16"}]}}}}}, {"name": "StatefulPartitionedCall/model/multi_head_attention_1/key/add/ReadVariableOp", "op": "Const", "attr": {"value": {"tensor": {"dtype": "DT_FLOAT", "tensorShape": {"dim": [{"size": "8"}, {"size": "16"}]}}}, "dtype": {"type": "DT_FLOAT"}}}, {"name": "StatefulPartitionedCall/model/multi_head_attention_1/query/einsum/Einsum/ReadVariableOp", "op": "Const", "attr": {"dtype": {"type": "DT_FLOAT"}, "value": {"tensor": {"dtype": "DT_FLOAT", "tensorShape": {"dim": [{"size": "128"}, {"size": "8"}, {"size": "16"}]}}}}}, {"name": "StatefulPartitionedCall/model/multi_head_attention_1/query/add/ReadVariableOp", "op": "Const", "attr": {"dtype": {"type": "DT_FLOAT"}, "value": {"tensor": {"dtype": "DT_FLOAT", "tensorShape": {"dim": [{"size": "8"}, {"size": "16"}]}}}}}, {"name": "StatefulPartitionedCall/model/multi_head_attention_1/Mul/y", "op": "Const", "attr": {"value": {"tensor": {"dtype": "DT_FLOAT", "tensorShape": {}}}, "dtype": {"type": "DT_FLOAT"}}}, {"name": "StatefulPartitionedCall/model/layer_normalization_2/batchnorm/ReadVariableOp", "op": "Const", "attr": {"value": {"tensor": {"dtype": "DT_FLOAT", "tensorShape": {"dim": [{"size": "128"}]}}}, "dtype": {"type": "DT_FLOAT"}}}, {"name": "StatefulPartitionedCall/model/layer_normalization_2/moments/mean/reduction_indices", "op": "Const", "attr": {"dtype": {"type": "DT_INT32"}, "value": {"tensor": {"dtype": "DT_INT32", "tensorShape": {"dim": [{"size": "1"}]}}}}}, {"name": "StatefulPartitionedCall/model/layer_normalization_2/moments/variance/reduction_indices", "op": "Const", "attr": {"value": {"tensor": {"dtype": "DT_INT32", "tensorShape": {"dim": [{"size": "1"}]}}}, "dtype": {"type": "DT_INT32"}}}, {"name": "StatefulPartitionedCall/model/layer_normalization_2/batchnorm/add/y", "op": "Const", "attr": {"value": {"tensor": {"dtype": "DT_FLOAT", "tensorShape": {}}}, "dtype": {"type": "DT_FLOAT"}}}, {"name": "StatefulPartitionedCall/model/layer_normalization_2/batchnorm/mul/ReadVariableOp", "op": "Const", "attr": {"value": {"tensor": {"dtype": "DT_FLOAT", "tensorShape": {"dim": [{"size": "128"}]}}}, "dtype": {"type": "DT_FLOAT"}}}, {"name": "StatefulPartitionedCall/model/multi_head_attention_1/value/einsum/Einsum/ReadVariableOp", "op": "Const", "attr": {"dtype": {"type": "DT_FLOAT"}, "value": {"tensor": {"dtype": "DT_FLOAT", "tensorShape": {"dim": [{"size": "128"}, {"size": "8"}, {"size": "16"}]}}}}}, {"name": "StatefulPartitionedCall/model/multi_head_attention_1/value/add/ReadVariableOp", "op": "Const", "attr": {"dtype": {"type": "DT_FLOAT"}, "value": {"tensor": {"dtype": "DT_FLOAT", "tensorShape": {"dim": [{"size": "8"}, {"size": "16"}]}}}}}, {"name": "StatefulPartitionedCall/model/multi_head_attention_1/attention_output/einsum/Einsum/ReadVariableOp", "op": "Const", "attr": {"value": {"tensor": {"dtype": "DT_FLOAT", "tensorShape": {"dim": [{"size": "8"}, {"size": "16"}, {"size": "128"}]}}}, "dtype": {"type": "DT_FLOAT"}}}, {"name": "StatefulPartitionedCall/model/sequential/dense_1/Gelu/mul/x", "op": "Const", "attr": {"value": {"tensor": {"dtype": "DT_FLOAT", "tensorShape": {}}}, "dtype": {"type": "DT_FLOAT"}}}, {"name": "StatefulPartitionedCall/model/sequential/dense_1/Gelu/add/x", "op": "Const", "attr": {"dtype": {"type": "DT_FLOAT"}, "value": {"tensor": {"dtype": "DT_FLOAT", "tensorShape": {}}}}}, {"name": "StatefulPartitionedCall/model/sequential/dense_1/Tensordot/Const", "op": "Const", "attr": {"dtype": {"type": "DT_INT32"}, "value": {"tensor": {"dtype": "DT_INT32", "tensorShape": {"dim": [{"size": "1"}]}}}}}, {"name": "StatefulPartitionedCall/model/sequential/dense_1/Tensordot/axes", "op": "Const", "attr": {"value": {"tensor": {"dtype": "DT_INT32", "tensorShape": {"dim": [{"size": "1"}]}}}, "dtype": {"type": "DT_INT32"}}}, {"name": "StatefulPartitionedCall/model/sequential/dense_1/Tensordot/GatherV2_1/axis", "op": "Const", "attr": {"value": {"tensor": {"dtype": "DT_INT32", "tensorShape": {}}}, "dtype": {"type": "DT_INT32"}}}, {"name": "StatefulPartitionedCall/model/sequential/dense_1/Tensordot/Const_1", "op": "Const", "attr": {"value": {"tensor": {"dtype": "DT_INT32", "tensorShape": {"dim": [{"size": "1"}]}}}, "dtype": {"type": "DT_INT32"}}}, {"name": "StatefulPartitionedCall/model/sequential/dense_1/Tensordot/ReadVariableOp", "op": "Const", "attr": {"value": {"tensor": {"dtype": "DT_FLOAT", "tensorShape": {"dim": [{"size": "512"}, {"size": "128"}]}}}, "dtype": {"type": "DT_FLOAT"}}}, {"name": "StatefulPartitionedCall/model/sequential/dense/Gelu/mul/x", "op": "Const", "attr": {"value": {"tensor": {"dtype": "DT_FLOAT", "tensorShape": {}}}, "dtype": {"type": "DT_FLOAT"}}}, {"name": "StatefulPartitionedCall/model/sequential/dense/Gelu/add/x", "op": "Const", "attr": {"value": {"tensor": {"dtype": "DT_FLOAT", "tensorShape": {}}}, "dtype": {"type": "DT_FLOAT"}}}, {"name": "StatefulPartitionedCall/model/sequential/dense/Tensordot/Const", "op": "Const", "attr": {"value": {"tensor": {"dtype": "DT_INT32", "tensorShape": {"dim": [{"size": "1"}]}}}, "dtype": {"type": "DT_INT32"}}}, {"name": "StatefulPartitionedCall/model/sequential/dense/Tensordot/axes", "op": "Const", "attr": {"value": {"tensor": {"dtype": "DT_INT32", "tensorShape": {"dim": [{"size": "1"}]}}}, "dtype": {"type": "DT_INT32"}}}, {"name": "StatefulPartitionedCall/model/sequential/dense/Tensordot/GatherV2_1/axis", "op": "Const", "attr": {"dtype": {"type": "DT_INT32"}, "value": {"tensor": {"dtype": "DT_INT32", "tensorShape": {}}}}}, {"name": "StatefulPartitionedCall/model/sequential/dense/Tensordot/Const_1", "op": "Const", "attr": {"dtype": {"type": "DT_INT32"}, "value": {"tensor": {"dtype": "DT_INT32", "tensorShape": {"dim": [{"size": "1"}]}}}}}, {"name": "StatefulPartitionedCall/model/sequential/dense/Tensordot/ReadVariableOp", "op": "Const", "attr": {"value": {"tensor": {"dtype": "DT_FLOAT", "tensorShape": {"dim": [{"size": "128"}, {"size": "512"}]}}}, "dtype": {"type": "DT_FLOAT"}}}, {"name": "StatefulPartitionedCall/model/layer_normalization_1/batchnorm/ReadVariableOp", "op": "Const", "attr": {"dtype": {"type": "DT_FLOAT"}, "value": {"tensor": {"dtype": "DT_FLOAT", "tensorShape": {"dim": [{"size": "128"}]}}}}}, {"name": "StatefulPartitionedCall/model/layer_normalization_1/moments/mean/reduction_indices", "op": "Const", "attr": {"dtype": {"type": "DT_INT32"}, "value": {"tensor": {"dtype": "DT_INT32", "tensorShape": {"dim": [{"size": "1"}]}}}}}, {"name": "StatefulPartitionedCall/model/layer_normalization_1/moments/variance/reduction_indices", "op": "Const", "attr": {"value": {"tensor": {"dtype": "DT_INT32", "tensorShape": {"dim": [{"size": "1"}]}}}, "dtype": {"type": "DT_INT32"}}}, {"name": "StatefulPartitionedCall/model/layer_normalization_1/batchnorm/add/y", "op": "Const", "attr": {"value": {"tensor": {"dtype": "DT_FLOAT", "tensorShape": {}}}, "dtype": {"type": "DT_FLOAT"}}}, {"name": "StatefulPartitionedCall/model/layer_normalization_1/batchnorm/mul/ReadVariableOp", "op": "Const", "attr": {"value": {"tensor": {"dtype": "DT_FLOAT", "tensorShape": {"dim": [{"size": "128"}]}}}, "dtype": {"type": "DT_FLOAT"}}}, {"name": "StatefulPartitionedCall/model/sequential/dense/Tensordot/free", "op": "Const", "attr": {"value": {"tensor": {"dtype": "DT_INT32", "tensorShape": {"dim": [{"size": "2"}]}}}, "dtype": {"type": "DT_INT32"}}}, {"name": "StatefulPartitionedCall/model/sequential/dense/Tensordot/GatherV2/axis", "op": "Const", "attr": {"value": {"tensor": {"dtype": "DT_INT32", "tensorShape": {}}}, "dtype": {"type": "DT_INT32"}}}, {"name": "StatefulPartitionedCall/model/sequential/dense/Tensordot/Const_2", "op": "Const", "attr": {"value": {"tensor": {"dtype": "DT_INT32", "tensorShape": {"dim": [{"size": "1"}]}}}, "dtype": {"type": "DT_INT32"}}}, {"name": "StatefulPartitionedCall/model/sequential/dense/Tensordot/concat_1/axis", "op": "Const", "attr": {"dtype": {"type": "DT_INT32"}, "value": {"tensor": {"dtype": "DT_INT32", "tensorShape": {}}}}}, {"name": "StatefulPartitionedCall/model/sequential/dense/BiasAdd/ReadVariableOp", "op": "Const", "attr": {"value": {"tensor": {"dtype": "DT_FLOAT", "tensorShape": {"dim": [{"size": "512"}]}}}, "dtype": {"type": "DT_FLOAT"}}}, {"name": "ConstantFolding/StatefulPartitionedCall/model/sequential/dense/Gelu/truediv_recip", "op": "Const", "attr": {"dtype": {"type": "DT_FLOAT"}, "value": {"tensor": {"dtype": "DT_FLOAT", "tensorShape": {}}}}}, {"name": "StatefulPartitionedCall/model/sequential/dense_1/Tensordot/free", "op": "Const", "attr": {"value": {"tensor": {"dtype": "DT_INT32", "tensorShape": {"dim": [{"size": "2"}]}}}, "dtype": {"type": "DT_INT32"}}}, {"name": "StatefulPartitionedCall/model/sequential/dense_1/Tensordot/GatherV2/axis", "op": "Const", "attr": {"value": {"tensor": {"dtype": "DT_INT32", "tensorShape": {}}}, "dtype": {"type": "DT_INT32"}}}, {"name": "StatefulPartitionedCall/model/sequential/dense_1/Tensordot/Const_2", "op": "Const", "attr": {"value": {"tensor": {"dtype": "DT_INT32", "tensorShape": {"dim": [{"size": "1"}]}}}, "dtype": {"type": "DT_INT32"}}}, {"name": "StatefulPartitionedCall/model/sequential/dense_1/Tensordot/concat_1/axis", "op": "Const", "attr": {"dtype": {"type": "DT_INT32"}, "value": {"tensor": {"dtype": "DT_INT32", "tensorShape": {}}}}}, {"name": "StatefulPartitionedCall/model/sequential/dense_1/BiasAdd/ReadVariableOp", "op": "Const", "attr": {"value": {"tensor": {"dtype": "DT_FLOAT", "tensorShape": {"dim": [{"size": "128"}]}}}, "dtype": {"type": "DT_FLOAT"}}}, {"name": "ConstantFolding/StatefulPartitionedCall/model/sequential/dense_1/Gelu/truediv_recip", "op": "Const", "attr": {"value": {"tensor": {"dtype": "DT_FLOAT", "tensorShape": {}}}, "dtype": {"type": "DT_FLOAT"}}}, {"name": "StatefulPartitionedCall/model/multi_head_attention/attention_output/add/ReadVariableOp", "op": "Const", "attr": {"value": {"tensor": {"dtype": "DT_FLOAT", "tensorShape": {"dim": [{"size": "128"}]}}}, "dtype": {"type": "DT_FLOAT"}}}, {"name": "StatefulPartitionedCall/model/multi_head_attention/key/einsum/Einsum/ReadVariableOp", "op": "Const", "attr": {"value": {"tensor": {"dtype": "DT_FLOAT", "tensorShape": {"dim": [{"size": "128"}, {"size": "8"}, {"size": "16"}]}}}, "dtype": {"type": "DT_FLOAT"}}}, {"name": "StatefulPartitionedCall/model/multi_head_attention/key/add/ReadVariableOp", "op": "Const", "attr": {"dtype": {"type": "DT_FLOAT"}, "value": {"tensor": {"dtype": "DT_FLOAT", "tensorShape": {"dim": [{"size": "8"}, {"size": "16"}]}}}}}, {"name": "StatefulPartitionedCall/model/multi_head_attention/query/einsum/Einsum/ReadVariableOp", "op": "Const", "attr": {"dtype": {"type": "DT_FLOAT"}, "value": {"tensor": {"dtype": "DT_FLOAT", "tensorShape": {"dim": [{"size": "128"}, {"size": "8"}, {"size": "16"}]}}}}}, {"name": "StatefulPartitionedCall/model/multi_head_attention/query/add/ReadVariableOp", "op": "Const", "attr": {"dtype": {"type": "DT_FLOAT"}, "value": {"tensor": {"dtype": "DT_FLOAT", "tensorShape": {"dim": [{"size": "8"}, {"size": "16"}]}}}}}, {"name": "StatefulPartitionedCall/model/multi_head_attention/Mul/y", "op": "Const", "attr": {"value": {"tensor": {"dtype": "DT_FLOAT", "tensorShape": {}}}, "dtype": {"type": "DT_FLOAT"}}}, {"name": "StatefulPartitionedCall/model/layer_normalization/batchnorm/ReadVariableOp", "op": "Const", "attr": {"dtype": {"type": "DT_FLOAT"}, "value": {"tensor": {"dtype": "DT_FLOAT", "tensorShape": {"dim": [{"size": "128"}]}}}}}, {"name": "StatefulPartitionedCall/model/layer_normalization/moments/mean/reduction_indices", "op": "Const", "attr": {"dtype": {"type": "DT_INT32"}, "value": {"tensor": {"dtype": "DT_INT32", "tensorShape": {"dim": [{"size": "1"}]}}}}}, {"name": "StatefulPartitionedCall/model/layer_normalization/moments/variance/reduction_indices", "op": "Const", "attr": {"value": {"tensor": {"dtype": "DT_INT32", "tensorShape": {"dim": [{"size": "1"}]}}}, "dtype": {"type": "DT_INT32"}}}, {"name": "StatefulPartitionedCall/model/layer_normalization/batchnorm/add/y", "op": "Const", "attr": {"dtype": {"type": "DT_FLOAT"}, "value": {"tensor": {"dtype": "DT_FLOAT", "tensorShape": {}}}}}, {"name": "StatefulPartitionedCall/model/layer_normalization/batchnorm/mul/ReadVariableOp", "op": "Const", "attr": {"dtype": {"type": "DT_FLOAT"}, "value": {"tensor": {"dtype": "DT_FLOAT", "tensorShape": {"dim": [{"size": "128"}]}}}}}, {"name": "StatefulPartitionedCall/model/multi_head_attention/value/einsum/Einsum/ReadVariableOp", "op": "Const", "attr": {"value": {"tensor": {"dtype": "DT_FLOAT", "tensorShape": {"dim": [{"size": "128"}, {"size": "8"}, {"size": "16"}]}}}, "dtype": {"type": "DT_FLOAT"}}}, {"name": "StatefulPartitionedCall/model/multi_head_attention/value/add/ReadVariableOp", "op": "Const", "attr": {"dtype": {"type": "DT_FLOAT"}, "value": {"tensor": {"dtype": "DT_FLOAT", "tensorShape": {"dim": [{"size": "8"}, {"size": "16"}]}}}}}, {"name": "StatefulPartitionedCall/model/multi_head_attention/attention_output/einsum/Einsum/ReadVariableOp", "op": "Const", "attr": {"value": {"tensor": {"dtype": "DT_FLOAT", "tensorShape": {"dim": [{"size": "8"}, {"size": "16"}, {"size": "128"}]}}}, "dtype": {"type": "DT_FLOAT"}}}, {"name": "StatefulPartitionedCall/model/tubelet_embedding/conv3d/Conv3D/ReadVariableOp", "op": "Const", "attr": {"dtype": {"type": "DT_FLOAT"}, "value": {"tensor": {"dtype": "DT_FLOAT", "tensorShape": {"dim": [{"size": "8"}, {"size": "8"}, {"size": "16"}, {"size": "1"}, {"size": "128"}]}}}}}, {"name": "StatefulPartitionedCall/model/tubelet_embedding/conv3d/BiasAdd/ReadVariableOp", "op": "Const", "attr": {"dtype": {"type": "DT_FLOAT"}, "value": {"tensor": {"dtype": "DT_FLOAT", "tensorShape": {"dim": [{"size": "128"}]}}}}}, {"name": "StatefulPartitionedCall/model/tubelet_embedding/reshape/strided_slice/stack", "op": "Const", "attr": {"dtype": {"type": "DT_INT32"}, "value": {"tensor": {"dtype": "DT_INT32", "tensorShape": {"dim": [{"size": "1"}]}}}}}, {"name": "StatefulPartitionedCall/model/tubelet_embedding/reshape/strided_slice/stack_1", "op": "Const", "attr": {"dtype": {"type": "DT_INT32"}, "value": {"tensor": {"dtype": "DT_INT32", "tensorShape": {"dim": [{"size": "1"}]}}}}}, {"name": "StatefulPartitionedCall/model/tubelet_embedding/reshape/strided_slice/stack_2", "op": "Const", "attr": {"dtype": {"type": "DT_INT32"}, "value": {"tensor": {"dtype": "DT_INT32", "tensorShape": {"dim": [{"size": "1"}]}}}}}, {"name": "StatefulPartitionedCall/model/tubelet_embedding/reshape/Reshape/shape/1", "op": "Const", "attr": {"dtype": {"type": "DT_INT32"}, "value": {"tensor": {"dtype": "DT_INT32", "tensorShape": {}}}}}, {"name": "StatefulPartitionedCall/model/tubelet_embedding/reshape/Reshape/shape/2", "op": "Const", "attr": {"dtype": {"type": "DT_INT32"}, "value": {"tensor": {"dtype": "DT_INT32", "tensorShape": {}}}}}, {"name": "StatefulPartitionedCall/model/positional_encoder/embedding/embedding_lookup", "op": "Const", "attr": {"dtype": {"type": "DT_FLOAT"}, "value": {"tensor": {"dtype": "DT_FLOAT", "tensorShape": {"dim": [{"size": "528"}, {"size": "128"}]}}}}}, {"name": "StatefulPartitionedCall/model/layer_normalization_16/moments/mean/reduction_indices", "op": "Const", "attr": {"value": {"tensor": {"dtype": "DT_INT32", "tensorShape": {"dim": [{"size": "1"}]}}}, "dtype": {"type": "DT_INT32"}}}, {"name": "StatefulPartitionedCall/model/layer_normalization_16/moments/variance/reduction_indices", "op": "Const", "attr": {"dtype": {"type": "DT_INT32"}, "value": {"tensor": {"dtype": "DT_INT32", "tensorShape": {"dim": [{"size": "1"}]}}}}}, {"name": "StatefulPartitionedCall/model/layer_normalization_16/batchnorm/add/y", "op": "Const", "attr": {"value": {"tensor": {"dtype": "DT_FLOAT", "tensorShape": {}}}, "dtype": {"type": "DT_FLOAT"}}}, {"name": "StatefulPartitionedCall/model/layer_normalization_16/batchnorm/mul/ReadVariableOp", "op": "Const", "attr": {"dtype": {"type": "DT_FLOAT"}, "value": {"tensor": {"dtype": "DT_FLOAT", "tensorShape": {"dim": [{"size": "128"}]}}}}}, {"name": "StatefulPartitionedCall/model/global_average_pooling1d/Mean/reduction_indices", "op": "Const", "attr": {"value": {"tensor": {"dtype": "DT_INT32", "tensorShape": {}}}, "dtype": {"type": "DT_INT32"}}}, {"name": "StatefulPartitionedCall/model/dense_16/MatMul/ReadVariableOp", "op": "Const", "attr": {"dtype": {"type": "DT_FLOAT"}, "value": {"tensor": {"dtype": "DT_FLOAT", "tensorShape": {"dim": [{"size": "128"}, {"size": "8"}]}}}}}, {"name": "StatefulPartitionedCall/model/dense_16/BiasAdd/ReadVariableOp", "op": "Const", "attr": {"dtype": {"type": "DT_FLOAT"}, "value": {"tensor": {"dtype": "DT_FLOAT", "tensorShape": {"dim": [{"size": "8"}]}}}}}, {"name": "input_1", "op": "Placeholder", "attr": {"dtype": {"type": "DT_FLOAT"}, "shape": {"shape": {"dim": [{"size": "-1"}, {"size": "36"}, {"size": "100"}, {"size": "176"}, {"size": "1"}]}}}}, {"name": "StatefulPartitionedCall/model/tubelet_embedding/conv3d/Conv3D", "op": "Conv3D", "input": ["input_1", "StatefulPartitionedCall/model/tubelet_embedding/conv3d/Conv3D/ReadVariableOp"], "attr": {"data_format": {"s": "TkRIV0M="}, "strides": {"list": {"i": ["1", "8", "8", "16", "1"]}}, "T": {"type": "DT_FLOAT"}, "dilations": {"list": {"i": ["1", "1", "1", "1", "1"]}}, "padding": {"s": "VkFMSUQ="}}}, {"name": "StatefulPartitionedCall/model/tubelet_embedding/conv3d/BiasAdd", "op": "BiasAdd", "input": ["StatefulPartitionedCall/model/tubelet_embedding/conv3d/Conv3D", "StatefulPartitionedCall/model/tubelet_embedding/conv3d/BiasAdd/ReadVariableOp"], "attr": {"T": {"type": "DT_FLOAT"}, "data_format": {"s": "TkhXQw=="}}}, {"name": "StatefulPartitionedCall/model/tubelet_embedding/reshape/Shape", "op": "Shape", "input": ["StatefulPartitionedCall/model/tubelet_embedding/conv3d/BiasAdd"], "attr": {"out_type": {"type": "DT_INT32"}, "T": {"type": "DT_FLOAT"}}}, {"name": "StatefulPartitionedCall/model/tubelet_embedding/reshape/strided_slice", "op": "StridedSlice", "input": ["StatefulPartitionedCall/model/tubelet_embedding/reshape/Shape", "StatefulPartitionedCall/model/tubelet_embedding/reshape/strided_slice/stack", "StatefulPartitionedCall/model/tubelet_embedding/reshape/strided_slice/stack_1", "StatefulPartitionedCall/model/tubelet_embedding/reshape/strided_slice/stack_2"], "attr": {"new_axis_mask": {"i": "0"}, "Index": {"type": "DT_INT32"}, "T": {"type": "DT_INT32"}, "shrink_axis_mask": {"i": "1"}, "ellipsis_mask": {"i": "0"}, "end_mask": {"i": "0"}, "begin_mask": {"i": "0"}}}, {"name": "StatefulPartitionedCall/model/tubelet_embedding/reshape/Reshape/shape", "op": "Pack", "input": ["StatefulPartitionedCall/model/tubelet_embedding/reshape/strided_slice", "StatefulPartitionedCall/model/tubelet_embedding/reshape/Reshape/shape/1", "StatefulPartitionedCall/model/tubelet_embedding/reshape/Reshape/shape/2"], "attr": {"T": {"type": "DT_INT32"}, "N": {"i": "3"}, "axis": {"i": "0"}}}, {"name": "StatefulPartitionedCall/model/tubelet_embedding/reshape/Reshape", "op": "Reshape", "input": ["StatefulPartitionedCall/model/tubelet_embedding/conv3d/BiasAdd", "StatefulPartitionedCall/model/tubelet_embedding/reshape/Reshape/shape"], "attr": {"Tshape": {"type": "DT_INT32"}, "T": {"type": "DT_FLOAT"}}}, {"name": "StatefulPartitionedCall/model/positional_encoder/add", "op": "AddV2", "input": ["StatefulPartitionedCall/model/tubelet_embedding/reshape/Reshape", "StatefulPartitionedCall/model/positional_encoder/embedding/embedding_lookup"], "attr": {"T": {"type": "DT_FLOAT"}}}, {"name": "StatefulPartitionedCall/model/layer_normalization/moments/mean", "op": "Mean", "input": ["StatefulPartitionedCall/model/positional_encoder/add", "StatefulPartitionedCall/model/layer_normalization/moments/mean/reduction_indices"], "attr": {"keep_dims": {"b": true}, "T": {"type": "DT_FLOAT"}, "Tidx": {"type": "DT_INT32"}}}, {"name": "StatefulPartitionedCall/model/layer_normalization/moments/SquaredDifference", "op": "SquaredDifference", "input": ["StatefulPartitionedCall/model/positional_encoder/add", "StatefulPartitionedCall/model/layer_normalization/moments/mean"], "attr": {"T": {"type": "DT_FLOAT"}}}, {"name": "StatefulPartitionedCall/model/layer_normalization/moments/variance", "op": "Mean", "input": ["StatefulPartitionedCall/model/layer_normalization/moments/SquaredDifference", "StatefulPartitionedCall/model/layer_normalization/moments/variance/reduction_indices"], "attr": {"T": {"type": "DT_FLOAT"}, "keep_dims": {"b": true}, "Tidx": {"type": "DT_INT32"}}}, {"name": "StatefulPartitionedCall/model/layer_normalization/batchnorm/add", "op": "AddV2", "input": ["StatefulPartitionedCall/model/layer_normalization/moments/variance", "StatefulPartitionedCall/model/layer_normalization/batchnorm/add/y"], "attr": {"T": {"type": "DT_FLOAT"}}}, {"name": "StatefulPartitionedCall/model/layer_normalization/batchnorm/Rsqrt", "op": "Rsqrt", "input": ["StatefulPartitionedCall/model/layer_normalization/batchnorm/add"], "attr": {"T": {"type": "DT_FLOAT"}}}, {"name": "StatefulPartitionedCall/model/layer_normalization/batchnorm/mul", "op": "Mul", "input": ["StatefulPartitionedCall/model/layer_normalization/batchnorm/Rsqrt", "StatefulPartitionedCall/model/layer_normalization/batchnorm/mul/ReadVariableOp"], "attr": {"T": {"type": "DT_FLOAT"}}}, {"name": "StatefulPartitionedCall/model/layer_normalization/batchnorm/mul_2", "op": "Mul", "input": ["StatefulPartitionedCall/model/layer_normalization/moments/mean", "StatefulPartitionedCall/model/layer_normalization/batchnorm/mul"], "attr": {"T": {"type": "DT_FLOAT"}}}, {"name": "StatefulPartitionedCall/model/layer_normalization/batchnorm/mul_1", "op": "Mul", "input": ["StatefulPartitionedCall/model/positional_encoder/add", "StatefulPartitionedCall/model/layer_normalization/batchnorm/mul"], "attr": {"T": {"type": "DT_FLOAT"}}}, {"name": "StatefulPartitionedCall/model/layer_normalization/batchnorm/sub", "op": "Sub", "input": ["StatefulPartitionedCall/model/layer_normalization/batchnorm/ReadVariableOp", "StatefulPartitionedCall/model/layer_normalization/batchnorm/mul_2"], "attr": {"T": {"type": "DT_FLOAT"}}}, {"name": "StatefulPartitionedCall/model/layer_normalization/batchnorm/add_1", "op": "AddV2", "input": ["StatefulPartitionedCall/model/layer_normalization/batchnorm/mul_1", "StatefulPartitionedCall/model/layer_normalization/batchnorm/sub"], "attr": {"T": {"type": "DT_FLOAT"}}}, {"name": "StatefulPartitionedCall/model/multi_head_attention/key/einsum/Einsum", "op": "Einsum", "input": ["StatefulPartitionedCall/model/layer_normalization/batchnorm/add_1", "StatefulPartitionedCall/model/multi_head_attention/key/einsum/Einsum/ReadVariableOp"], "attr": {"T": {"type": "DT_FLOAT"}, "N": {"i": "2"}, "equation": {"s": "YWJjLGNkZS0+YWJkZQ=="}}}, {"name": "StatefulPartitionedCall/model/multi_head_attention/query/einsum/Einsum", "op": "Einsum", "input": ["StatefulPartitionedCall/model/layer_normalization/batchnorm/add_1", "StatefulPartitionedCall/model/multi_head_attention/query/einsum/Einsum/ReadVariableOp"], "attr": {"equation": {"s": "YWJjLGNkZS0+YWJkZQ=="}, "T": {"type": "DT_FLOAT"}, "N": {"i": "2"}}}, {"name": "StatefulPartitionedCall/model/multi_head_attention/value/einsum/Einsum", "op": "Einsum", "input": ["StatefulPartitionedCall/model/layer_normalization/batchnorm/add_1", "StatefulPartitionedCall/model/multi_head_attention/value/einsum/Einsum/ReadVariableOp"], "attr": {"equation": {"s": "YWJjLGNkZS0+YWJkZQ=="}, "N": {"i": "2"}, "T": {"type": "DT_FLOAT"}}}, {"name": "StatefulPartitionedCall/model/multi_head_attention/key/add", "op": "AddV2", "input": ["StatefulPartitionedCall/model/multi_head_attention/key/einsum/Einsum", "StatefulPartitionedCall/model/multi_head_attention/key/add/ReadVariableOp"], "attr": {"T": {"type": "DT_FLOAT"}}}, {"name": "StatefulPartitionedCall/model/multi_head_attention/query/add", "op": "AddV2", "input": ["StatefulPartitionedCall/model/multi_head_attention/query/einsum/Einsum", "StatefulPartitionedCall/model/multi_head_attention/query/add/ReadVariableOp"], "attr": {"T": {"type": "DT_FLOAT"}}}, {"name": "StatefulPartitionedCall/model/multi_head_attention/value/add", "op": "AddV2", "input": ["StatefulPartitionedCall/model/multi_head_attention/value/einsum/Einsum", "StatefulPartitionedCall/model/multi_head_attention/value/add/ReadVariableOp"], "attr": {"T": {"type": "DT_FLOAT"}}}, {"name": "StatefulPartitionedCall/model/multi_head_attention/Mul", "op": "Mul", "input": ["StatefulPartitionedCall/model/multi_head_attention/query/add", "StatefulPartitionedCall/model/multi_head_attention/Mul/y"], "attr": {"T": {"type": "DT_FLOAT"}}}, {"name": "StatefulPartitionedCall/model/multi_head_attention/einsum/Einsum", "op": "Einsum", "input": ["StatefulPartitionedCall/model/multi_head_attention/key/add", "StatefulPartitionedCall/model/multi_head_attention/Mul"], "attr": {"T": {"type": "DT_FLOAT"}, "equation": {"s": "YWVjZCxhYmNkLT5hY2Jl"}, "N": {"i": "2"}}}, {"name": "StatefulPartitionedCall/model/multi_head_attention/softmax/Softmax", "op": "Softmax", "input": ["StatefulPartitionedCall/model/multi_head_attention/einsum/Einsum"], "attr": {"T": {"type": "DT_FLOAT"}}}, {"name": "StatefulPartitionedCall/model/multi_head_attention/einsum_1/Einsum", "op": "Einsum", "input": ["StatefulPartitionedCall/model/multi_head_attention/softmax/Softmax", "StatefulPartitionedCall/model/multi_head_attention/value/add"], "attr": {"equation": {"s": "YWNiZSxhZWNkLT5hYmNk"}, "T": {"type": "DT_FLOAT"}, "N": {"i": "2"}}}, {"name": "StatefulPartitionedCall/model/multi_head_attention/attention_output/einsum/Einsum", "op": "Einsum", "input": ["StatefulPartitionedCall/model/multi_head_attention/einsum_1/Einsum", "StatefulPartitionedCall/model/multi_head_attention/attention_output/einsum/Einsum/ReadVariableOp"], "attr": {"equation": {"s": "YWJjZCxjZGUtPmFiZQ=="}, "N": {"i": "2"}, "T": {"type": "DT_FLOAT"}}}, {"name": "StatefulPartitionedCall/model/add/ArithmeticOptimizer/AddOpsRewrite_Leaf_1_add", "op": "AddN", "input": ["StatefulPartitionedCall/model/multi_head_attention/attention_output/einsum/Einsum", "StatefulPartitionedCall/model/positional_encoder/add"], "attr": {"T": {"type": "DT_FLOAT"}, "_grappler_ArithmeticOptimizer_AddOpsRewriteStage": {"b": true}, "N": {"i": "2"}}}, {"name": "StatefulPartitionedCall/model/add/ArithmeticOptimizer/AddOpsRewrite_add", "op": "AddV2", "input": ["StatefulPartitionedCall/model/multi_head_attention/attention_output/add/ReadVariableOp", "StatefulPartitionedCall/model/add/ArithmeticOptimizer/AddOpsRewrite_Leaf_1_add"], "attr": {"_grappler_ArithmeticOptimizer_AddOpsRewriteStage": {"b": true}, "T": {"type": "DT_FLOAT"}}}, {"name": "StatefulPartitionedCall/model/layer_normalization_1/moments/mean", "op": "Mean", "input": ["StatefulPartitionedCall/model/add/ArithmeticOptimizer/AddOpsRewrite_add", "StatefulPartitionedCall/model/layer_normalization_1/moments/mean/reduction_indices"], "attr": {"T": {"type": "DT_FLOAT"}, "Tidx": {"type": "DT_INT32"}, "keep_dims": {"b": true}}}, {"name": "StatefulPartitionedCall/model/layer_normalization_1/moments/SquaredDifference", "op": "SquaredDifference", "input": ["StatefulPartitionedCall/model/add/ArithmeticOptimizer/AddOpsRewrite_add", "StatefulPartitionedCall/model/layer_normalization_1/moments/mean"], "attr": {"T": {"type": "DT_FLOAT"}}}, {"name": "StatefulPartitionedCall/model/layer_normalization_1/moments/variance", "op": "Mean", "input": ["StatefulPartitionedCall/model/layer_normalization_1/moments/SquaredDifference", "StatefulPartitionedCall/model/layer_normalization_1/moments/variance/reduction_indices"], "attr": {"T": {"type": "DT_FLOAT"}, "Tidx": {"type": "DT_INT32"}, "keep_dims": {"b": true}}}, {"name": "StatefulPartitionedCall/model/layer_normalization_1/batchnorm/add", "op": "AddV2", "input": ["StatefulPartitionedCall/model/layer_normalization_1/moments/variance", "StatefulPartitionedCall/model/layer_normalization_1/batchnorm/add/y"], "attr": {"T": {"type": "DT_FLOAT"}}}, {"name": "StatefulPartitionedCall/model/layer_normalization_1/batchnorm/Rsqrt", "op": "Rsqrt", "input": ["StatefulPartitionedCall/model/layer_normalization_1/batchnorm/add"], "attr": {"T": {"type": "DT_FLOAT"}}}, {"name": "StatefulPartitionedCall/model/layer_normalization_1/batchnorm/mul", "op": "Mul", "input": ["StatefulPartitionedCall/model/layer_normalization_1/batchnorm/Rsqrt", "StatefulPartitionedCall/model/layer_normalization_1/batchnorm/mul/ReadVariableOp"], "attr": {"T": {"type": "DT_FLOAT"}}}, {"name": "StatefulPartitionedCall/model/layer_normalization_1/batchnorm/mul_2", "op": "Mul", "input": ["StatefulPartitionedCall/model/layer_normalization_1/moments/mean", "StatefulPartitionedCall/model/layer_normalization_1/batchnorm/mul"], "attr": {"T": {"type": "DT_FLOAT"}}}, {"name": "StatefulPartitionedCall/model/layer_normalization_1/batchnorm/mul_1", "op": "Mul", "input": ["StatefulPartitionedCall/model/add/ArithmeticOptimizer/AddOpsRewrite_add", "StatefulPartitionedCall/model/layer_normalization_1/batchnorm/mul"], "attr": {"T": {"type": "DT_FLOAT"}}}, {"name": "StatefulPartitionedCall/model/layer_normalization_1/batchnorm/sub", "op": "Sub", "input": ["StatefulPartitionedCall/model/layer_normalization_1/batchnorm/ReadVariableOp", "StatefulPartitionedCall/model/layer_normalization_1/batchnorm/mul_2"], "attr": {"T": {"type": "DT_FLOAT"}}}, {"name": "StatefulPartitionedCall/model/layer_normalization_1/batchnorm/add_1", "op": "AddV2", "input": ["StatefulPartitionedCall/model/layer_normalization_1/batchnorm/mul_1", "StatefulPartitionedCall/model/layer_normalization_1/batchnorm/sub"], "attr": {"T": {"type": "DT_FLOAT"}}}, {"name": "StatefulPartitionedCall/model/sequential/dense/Tensordot/Shape", "op": "Shape", "input": ["StatefulPartitionedCall/model/layer_normalization_1/batchnorm/add_1"], "attr": {"T": {"type": "DT_FLOAT"}, "out_type": {"type": "DT_INT32"}}}, {"name": "StatefulPartitionedCall/model/sequential/dense/Tensordot/GatherV2_1", "op": "GatherV2", "input": ["StatefulPartitionedCall/model/sequential/dense/Tensordot/Shape", "StatefulPartitionedCall/model/sequential/dense/Tensordot/axes", "StatefulPartitionedCall/model/sequential/dense/Tensordot/GatherV2_1/axis"], "attr": {"Tparams": {"type": "DT_INT32"}, "Tindices": {"type": "DT_INT32"}, "batch_dims": {"i": "0"}, "Taxis": {"type": "DT_INT32"}}}, {"name": "StatefulPartitionedCall/model/sequential/dense/Tensordot/GatherV2", "op": "GatherV2", "input": ["StatefulPartitionedCall/model/sequential/dense/Tensordot/Shape", "StatefulPartitionedCall/model/sequential/dense/Tensordot/free", "StatefulPartitionedCall/model/sequential/dense/Tensordot/GatherV2/axis"], "attr": {"Tindices": {"type": "DT_INT32"}, "Taxis": {"type": "DT_INT32"}, "batch_dims": {"i": "0"}, "Tparams": {"type": "DT_INT32"}}}, {"name": "StatefulPartitionedCall/model/sequential/dense/Tensordot/Prod_1", "op": "Prod", "input": ["StatefulPartitionedCall/model/sequential/dense/Tensordot/GatherV2_1", "StatefulPartitionedCall/model/sequential/dense/Tensordot/Const_1"], "attr": {"keep_dims": {"b": false}, "T": {"type": "DT_INT32"}, "Tidx": {"type": "DT_INT32"}}}, {"name": "StatefulPartitionedCall/model/sequential/dense/Tensordot/Prod", "op": "Prod", "input": ["StatefulPartitionedCall/model/sequential/dense/Tensordot/GatherV2", "StatefulPartitionedCall/model/sequential/dense/Tensordot/Const"], "attr": {"T": {"type": "DT_INT32"}, "Tidx": {"type": "DT_INT32"}, "keep_dims": {"b": false}}}, {"name": "StatefulPartitionedCall/model/sequential/dense/Tensordot/concat_1", "op": "ConcatV2", "input": ["StatefulPartitionedCall/model/sequential/dense/Tensordot/GatherV2", "StatefulPartitionedCall/model/sequential/dense/Tensordot/Const_2", "StatefulPartitionedCall/model/sequential/dense/Tensordot/concat_1/axis"], "attr": {"N": {"i": "2"}, "T": {"type": "DT_INT32"}, "Tidx": {"type": "DT_INT32"}}}, {"name": "StatefulPartitionedCall/model/sequential/dense/Tensordot/stack", "op": "Pack", "input": ["StatefulPartitionedCall/model/sequential/dense/Tensordot/Prod", "StatefulPartitionedCall/model/sequential/dense/Tensordot/Prod_1"], "attr": {"T": {"type": "DT_INT32"}, "axis": {"i": "0"}, "N": {"i": "2"}}}, {"name": "StatefulPartitionedCall/model/sequential/dense/Tensordot/Reshape", "op": "Reshape", "input": ["StatefulPartitionedCall/model/layer_normalization_1/batchnorm/add_1", "StatefulPartitionedCall/model/sequential/dense/Tensordot/stack"], "attr": {"Tshape": {"type": "DT_INT32"}, "T": {"type": "DT_FLOAT"}}}, {"name": "StatefulPartitionedCall/model/sequential/dense/Tensordot/MatMul", "op": "MatMul", "input": ["StatefulPartitionedCall/model/sequential/dense/Tensordot/Reshape", "StatefulPartitionedCall/model/sequential/dense/Tensordot/ReadVariableOp"], "device": "/device:CPU:0", "attr": {"transpose_b": {"b": false}, "transpose_a": {"b": false}, "T": {"type": "DT_FLOAT"}}}, {"name": "StatefulPartitionedCall/model/sequential/dense/Tensordot", "op": "Reshape", "input": ["StatefulPartitionedCall/model/sequential/dense/Tensordot/MatMul", "StatefulPartitionedCall/model/sequential/dense/Tensordot/concat_1"], "attr": {"T": {"type": "DT_FLOAT"}, "Tshape": {"type": "DT_INT32"}}}, {"name": "StatefulPartitionedCall/model/sequential/dense/BiasAdd", "op": "BiasAdd", "input": ["StatefulPartitionedCall/model/sequential/dense/Tensordot", "StatefulPartitionedCall/model/sequential/dense/BiasAdd/ReadVariableOp"], "attr": {"T": {"type": "DT_FLOAT"}, "data_format": {"s": "TkhXQw=="}}}, {"name": "StatefulPartitionedCall/model/sequential/dense/Gelu/mul", "op": "Mul", "input": ["StatefulPartitionedCall/model/sequential/dense/Gelu/mul/x", "StatefulPartitionedCall/model/sequential/dense/BiasAdd"], "attr": {"T": {"type": "DT_FLOAT"}, "_grappler_ArithmeticOptimizer_MinimizeBroadcasts": {"b": true}}}, {"name": "StatefulPartitionedCall/model/sequential/dense/Gelu/truediv", "op": "Mul", "input": ["StatefulPartitionedCall/model/sequential/dense/BiasAdd", "ConstantFolding/StatefulPartitionedCall/model/sequential/dense/Gelu/truediv_recip"], "attr": {"T": {"type": "DT_FLOAT"}}}, {"name": "StatefulPartitionedCall/model/sequential/dense/Gelu/Erf", "op": "Erf", "input": ["StatefulPartitionedCall/model/sequential/dense/Gelu/truediv"], "attr": {"T": {"type": "DT_FLOAT"}}}, {"name": "StatefulPartitionedCall/model/sequential/dense/Gelu/add", "op": "AddV2", "input": ["StatefulPartitionedCall/model/sequential/dense/Gelu/add/x", "StatefulPartitionedCall/model/sequential/dense/Gelu/Erf"], "attr": {"T": {"type": "DT_FLOAT"}}}, {"name": "StatefulPartitionedCall/model/sequential/dense/Gelu/mul_1", "op": "Mul", "input": ["StatefulPartitionedCall/model/sequential/dense/Gelu/mul", "StatefulPartitionedCall/model/sequential/dense/Gelu/add"], "attr": {"T": {"type": "DT_FLOAT"}, "_grappler_ArithmeticOptimizer_MinimizeBroadcasts": {"b": true}}}, {"name": "StatefulPartitionedCall/model/sequential/dense_1/Tensordot/Shape", "op": "Shape", "input": ["StatefulPartitionedCall/model/sequential/dense/Gelu/mul_1"], "attr": {"T": {"type": "DT_FLOAT"}, "out_type": {"type": "DT_INT32"}}}, {"name": "StatefulPartitionedCall/model/sequential/dense_1/Tensordot/GatherV2_1", "op": "GatherV2", "input": ["StatefulPartitionedCall/model/sequential/dense_1/Tensordot/Shape", "StatefulPartitionedCall/model/sequential/dense_1/Tensordot/axes", "StatefulPartitionedCall/model/sequential/dense_1/Tensordot/GatherV2_1/axis"], "attr": {"batch_dims": {"i": "0"}, "Taxis": {"type": "DT_INT32"}, "Tindices": {"type": "DT_INT32"}, "Tparams": {"type": "DT_INT32"}}}, {"name": "StatefulPartitionedCall/model/sequential/dense_1/Tensordot/GatherV2", "op": "GatherV2", "input": ["StatefulPartitionedCall/model/sequential/dense_1/Tensordot/Shape", "StatefulPartitionedCall/model/sequential/dense_1/Tensordot/free", "StatefulPartitionedCall/model/sequential/dense_1/Tensordot/GatherV2/axis"], "attr": {"Tparams": {"type": "DT_INT32"}, "batch_dims": {"i": "0"}, "Tindices": {"type": "DT_INT32"}, "Taxis": {"type": "DT_INT32"}}}, {"name": "StatefulPartitionedCall/model/sequential/dense_1/Tensordot/Prod_1", "op": "Prod", "input": ["StatefulPartitionedCall/model/sequential/dense_1/Tensordot/GatherV2_1", "StatefulPartitionedCall/model/sequential/dense_1/Tensordot/Const_1"], "attr": {"T": {"type": "DT_INT32"}, "Tidx": {"type": "DT_INT32"}, "keep_dims": {"b": false}}}, {"name": "StatefulPartitionedCall/model/sequential/dense_1/Tensordot/Prod", "op": "Prod", "input": ["StatefulPartitionedCall/model/sequential/dense_1/Tensordot/GatherV2", "StatefulPartitionedCall/model/sequential/dense_1/Tensordot/Const"], "attr": {"keep_dims": {"b": false}, "Tidx": {"type": "DT_INT32"}, "T": {"type": "DT_INT32"}}}, {"name": "StatefulPartitionedCall/model/sequential/dense_1/Tensordot/concat_1", "op": "ConcatV2", "input": ["StatefulPartitionedCall/model/sequential/dense_1/Tensordot/GatherV2", "StatefulPartitionedCall/model/sequential/dense_1/Tensordot/Const_2", "StatefulPartitionedCall/model/sequential/dense_1/Tensordot/concat_1/axis"], "attr": {"T": {"type": "DT_INT32"}, "Tidx": {"type": "DT_INT32"}, "N": {"i": "2"}}}, {"name": "StatefulPartitionedCall/model/sequential/dense_1/Tensordot/stack", "op": "Pack", "input": ["StatefulPartitionedCall/model/sequential/dense_1/Tensordot/Prod", "StatefulPartitionedCall/model/sequential/dense_1/Tensordot/Prod_1"], "attr": {"axis": {"i": "0"}, "N": {"i": "2"}, "T": {"type": "DT_INT32"}}}, {"name": "StatefulPartitionedCall/model/sequential/dense_1/Tensordot/Reshape", "op": "Reshape", "input": ["StatefulPartitionedCall/model/sequential/dense/Gelu/mul_1", "StatefulPartitionedCall/model/sequential/dense_1/Tensordot/stack"], "attr": {"Tshape": {"type": "DT_INT32"}, "T": {"type": "DT_FLOAT"}}}, {"name": "StatefulPartitionedCall/model/sequential/dense_1/Tensordot/MatMul", "op": "MatMul", "input": ["StatefulPartitionedCall/model/sequential/dense_1/Tensordot/Reshape", "StatefulPartitionedCall/model/sequential/dense_1/Tensordot/ReadVariableOp"], "device": "/device:CPU:0", "attr": {"transpose_a": {"b": false}, "transpose_b": {"b": false}, "T": {"type": "DT_FLOAT"}}}, {"name": "StatefulPartitionedCall/model/sequential/dense_1/Tensordot", "op": "Reshape", "input": ["StatefulPartitionedCall/model/sequential/dense_1/Tensordot/MatMul", "StatefulPartitionedCall/model/sequential/dense_1/Tensordot/concat_1"], "attr": {"T": {"type": "DT_FLOAT"}, "Tshape": {"type": "DT_INT32"}}}, {"name": "StatefulPartitionedCall/model/sequential/dense_1/BiasAdd", "op": "BiasAdd", "input": ["StatefulPartitionedCall/model/sequential/dense_1/Tensordot", "StatefulPartitionedCall/model/sequential/dense_1/BiasAdd/ReadVariableOp"], "attr": {"data_format": {"s": "TkhXQw=="}, "T": {"type": "DT_FLOAT"}}}, {"name": "StatefulPartitionedCall/model/sequential/dense_1/Gelu/mul", "op": "Mul", "input": ["StatefulPartitionedCall/model/sequential/dense_1/Gelu/mul/x", "StatefulPartitionedCall/model/sequential/dense_1/BiasAdd"], "attr": {"T": {"type": "DT_FLOAT"}, "_grappler_ArithmeticOptimizer_MinimizeBroadcasts": {"b": true}}}, {"name": "StatefulPartitionedCall/model/sequential/dense_1/Gelu/truediv", "op": "Mul", "input": ["StatefulPartitionedCall/model/sequential/dense_1/BiasAdd", "ConstantFolding/StatefulPartitionedCall/model/sequential/dense_1/Gelu/truediv_recip"], "attr": {"T": {"type": "DT_FLOAT"}}}, {"name": "StatefulPartitionedCall/model/sequential/dense_1/Gelu/Erf", "op": "Erf", "input": ["StatefulPartitionedCall/model/sequential/dense_1/Gelu/truediv"], "attr": {"T": {"type": "DT_FLOAT"}}}, {"name": "StatefulPartitionedCall/model/sequential/dense_1/Gelu/add", "op": "AddV2", "input": ["StatefulPartitionedCall/model/sequential/dense_1/Gelu/add/x", "StatefulPartitionedCall/model/sequential/dense_1/Gelu/Erf"], "attr": {"T": {"type": "DT_FLOAT"}}}, {"name": "StatefulPartitionedCall/model/sequential/dense_1/Gelu/mul_1", "op": "Mul", "input": ["StatefulPartitionedCall/model/sequential/dense_1/Gelu/mul", "StatefulPartitionedCall/model/sequential/dense_1/Gelu/add"], "attr": {"_grappler_ArithmeticOptimizer_MinimizeBroadcasts": {"b": true}, "T": {"type": "DT_FLOAT"}}}, {"name": "StatefulPartitionedCall/model/add_1/add", "op": "AddV2", "input": ["StatefulPartitionedCall/model/sequential/dense_1/Gelu/mul_1", "StatefulPartitionedCall/model/add/ArithmeticOptimizer/AddOpsRewrite_add"], "attr": {"T": {"type": "DT_FLOAT"}}}, {"name": "StatefulPartitionedCall/model/layer_normalization_2/moments/mean", "op": "Mean", "input": ["StatefulPartitionedCall/model/add_1/add", "StatefulPartitionedCall/model/layer_normalization_2/moments/mean/reduction_indices"], "attr": {"keep_dims": {"b": true}, "T": {"type": "DT_FLOAT"}, "Tidx": {"type": "DT_INT32"}}}, {"name": "StatefulPartitionedCall/model/layer_normalization_2/moments/SquaredDifference", "op": "SquaredDifference", "input": ["StatefulPartitionedCall/model/add_1/add", "StatefulPartitionedCall/model/layer_normalization_2/moments/mean"], "attr": {"T": {"type": "DT_FLOAT"}}}, {"name": "StatefulPartitionedCall/model/layer_normalization_2/moments/variance", "op": "Mean", "input": ["StatefulPartitionedCall/model/layer_normalization_2/moments/SquaredDifference", "StatefulPartitionedCall/model/layer_normalization_2/moments/variance/reduction_indices"], "attr": {"keep_dims": {"b": true}, "T": {"type": "DT_FLOAT"}, "Tidx": {"type": "DT_INT32"}}}, {"name": "StatefulPartitionedCall/model/layer_normalization_2/batchnorm/add", "op": "AddV2", "input": ["StatefulPartitionedCall/model/layer_normalization_2/moments/variance", "StatefulPartitionedCall/model/layer_normalization_2/batchnorm/add/y"], "attr": {"T": {"type": "DT_FLOAT"}}}, {"name": "StatefulPartitionedCall/model/layer_normalization_2/batchnorm/Rsqrt", "op": "Rsqrt", "input": ["StatefulPartitionedCall/model/layer_normalization_2/batchnorm/add"], "attr": {"T": {"type": "DT_FLOAT"}}}, {"name": "StatefulPartitionedCall/model/layer_normalization_2/batchnorm/mul", "op": "Mul", "input": ["StatefulPartitionedCall/model/layer_normalization_2/batchnorm/Rsqrt", "StatefulPartitionedCall/model/layer_normalization_2/batchnorm/mul/ReadVariableOp"], "attr": {"T": {"type": "DT_FLOAT"}}}, {"name": "StatefulPartitionedCall/model/layer_normalization_2/batchnorm/mul_2", "op": "Mul", "input": ["StatefulPartitionedCall/model/layer_normalization_2/moments/mean", "StatefulPartitionedCall/model/layer_normalization_2/batchnorm/mul"], "attr": {"T": {"type": "DT_FLOAT"}}}, {"name": "StatefulPartitionedCall/model/layer_normalization_2/batchnorm/mul_1", "op": "Mul", "input": ["StatefulPartitionedCall/model/add_1/add", "StatefulPartitionedCall/model/layer_normalization_2/batchnorm/mul"], "attr": {"T": {"type": "DT_FLOAT"}}}, {"name": "StatefulPartitionedCall/model/layer_normalization_2/batchnorm/sub", "op": "Sub", "input": ["StatefulPartitionedCall/model/layer_normalization_2/batchnorm/ReadVariableOp", "StatefulPartitionedCall/model/layer_normalization_2/batchnorm/mul_2"], "attr": {"T": {"type": "DT_FLOAT"}}}, {"name": "StatefulPartitionedCall/model/layer_normalization_2/batchnorm/add_1", "op": "AddV2", "input": ["StatefulPartitionedCall/model/layer_normalization_2/batchnorm/mul_1", "StatefulPartitionedCall/model/layer_normalization_2/batchnorm/sub"], "attr": {"T": {"type": "DT_FLOAT"}}}, {"name": "StatefulPartitionedCall/model/multi_head_attention_1/key/einsum/Einsum", "op": "Einsum", "input": ["StatefulPartitionedCall/model/layer_normalization_2/batchnorm/add_1", "StatefulPartitionedCall/model/multi_head_attention_1/key/einsum/Einsum/ReadVariableOp"], "attr": {"equation": {"s": "YWJjLGNkZS0+YWJkZQ=="}, "T": {"type": "DT_FLOAT"}, "N": {"i": "2"}}}, {"name": "StatefulPartitionedCall/model/multi_head_attention_1/query/einsum/Einsum", "op": "Einsum", "input": ["StatefulPartitionedCall/model/layer_normalization_2/batchnorm/add_1", "StatefulPartitionedCall/model/multi_head_attention_1/query/einsum/Einsum/ReadVariableOp"], "attr": {"T": {"type": "DT_FLOAT"}, "N": {"i": "2"}, "equation": {"s": "YWJjLGNkZS0+YWJkZQ=="}}}, {"name": "StatefulPartitionedCall/model/multi_head_attention_1/value/einsum/Einsum", "op": "Einsum", "input": ["StatefulPartitionedCall/model/layer_normalization_2/batchnorm/add_1", "StatefulPartitionedCall/model/multi_head_attention_1/value/einsum/Einsum/ReadVariableOp"], "attr": {"N": {"i": "2"}, "equation": {"s": "YWJjLGNkZS0+YWJkZQ=="}, "T": {"type": "DT_FLOAT"}}}, {"name": "StatefulPartitionedCall/model/multi_head_attention_1/key/add", "op": "AddV2", "input": ["StatefulPartitionedCall/model/multi_head_attention_1/key/einsum/Einsum", "StatefulPartitionedCall/model/multi_head_attention_1/key/add/ReadVariableOp"], "attr": {"T": {"type": "DT_FLOAT"}}}, {"name": "StatefulPartitionedCall/model/multi_head_attention_1/query/add", "op": "AddV2", "input": ["StatefulPartitionedCall/model/multi_head_attention_1/query/einsum/Einsum", "StatefulPartitionedCall/model/multi_head_attention_1/query/add/ReadVariableOp"], "attr": {"T": {"type": "DT_FLOAT"}}}, {"name": "StatefulPartitionedCall/model/multi_head_attention_1/value/add", "op": "AddV2", "input": ["StatefulPartitionedCall/model/multi_head_attention_1/value/einsum/Einsum", "StatefulPartitionedCall/model/multi_head_attention_1/value/add/ReadVariableOp"], "attr": {"T": {"type": "DT_FLOAT"}}}, {"name": "StatefulPartitionedCall/model/multi_head_attention_1/Mul", "op": "Mul", "input": ["StatefulPartitionedCall/model/multi_head_attention_1/query/add", "StatefulPartitionedCall/model/multi_head_attention_1/Mul/y"], "attr": {"T": {"type": "DT_FLOAT"}}}, {"name": "StatefulPartitionedCall/model/multi_head_attention_1/einsum/Einsum", "op": "Einsum", "input": ["StatefulPartitionedCall/model/multi_head_attention_1/key/add", "StatefulPartitionedCall/model/multi_head_attention_1/Mul"], "attr": {"T": {"type": "DT_FLOAT"}, "equation": {"s": "YWVjZCxhYmNkLT5hY2Jl"}, "N": {"i": "2"}}}, {"name": "StatefulPartitionedCall/model/multi_head_attention_1/softmax/Softmax", "op": "Softmax", "input": ["StatefulPartitionedCall/model/multi_head_attention_1/einsum/Einsum"], "attr": {"T": {"type": "DT_FLOAT"}}}, {"name": "StatefulPartitionedCall/model/multi_head_attention_1/einsum_1/Einsum", "op": "Einsum", "input": ["StatefulPartitionedCall/model/multi_head_attention_1/softmax/Softmax", "StatefulPartitionedCall/model/multi_head_attention_1/value/add"], "attr": {"T": {"type": "DT_FLOAT"}, "N": {"i": "2"}, "equation": {"s": "YWNiZSxhZWNkLT5hYmNk"}}}, {"name": "StatefulPartitionedCall/model/multi_head_attention_1/attention_output/einsum/Einsum", "op": "Einsum", "input": ["StatefulPartitionedCall/model/multi_head_attention_1/einsum_1/Einsum", "StatefulPartitionedCall/model/multi_head_attention_1/attention_output/einsum/Einsum/ReadVariableOp"], "attr": {"equation": {"s": "YWJjZCxjZGUtPmFiZQ=="}, "T": {"type": "DT_FLOAT"}, "N": {"i": "2"}}}, {"name": "StatefulPartitionedCall/model/add_2/ArithmeticOptimizer/AddOpsRewrite_Leaf_1_add", "op": "AddN", "input": ["StatefulPartitionedCall/model/multi_head_attention_1/attention_output/einsum/Einsum", "StatefulPartitionedCall/model/add_1/add"], "attr": {"N": {"i": "2"}, "_grappler_ArithmeticOptimizer_AddOpsRewriteStage": {"b": true}, "T": {"type": "DT_FLOAT"}}}, {"name": "StatefulPartitionedCall/model/add_2/ArithmeticOptimizer/AddOpsRewrite_add", "op": "AddV2", "input": ["StatefulPartitionedCall/model/multi_head_attention_1/attention_output/add/ReadVariableOp", "StatefulPartitionedCall/model/add_2/ArithmeticOptimizer/AddOpsRewrite_Leaf_1_add"], "attr": {"_grappler_ArithmeticOptimizer_AddOpsRewriteStage": {"b": true}, "T": {"type": "DT_FLOAT"}}}, {"name": "StatefulPartitionedCall/model/layer_normalization_3/moments/mean", "op": "Mean", "input": ["StatefulPartitionedCall/model/add_2/ArithmeticOptimizer/AddOpsRewrite_add", "StatefulPartitionedCall/model/layer_normalization_3/moments/mean/reduction_indices"], "attr": {"T": {"type": "DT_FLOAT"}, "Tidx": {"type": "DT_INT32"}, "keep_dims": {"b": true}}}, {"name": "StatefulPartitionedCall/model/layer_normalization_3/moments/SquaredDifference", "op": "SquaredDifference", "input": ["StatefulPartitionedCall/model/add_2/ArithmeticOptimizer/AddOpsRewrite_add", "StatefulPartitionedCall/model/layer_normalization_3/moments/mean"], "attr": {"T": {"type": "DT_FLOAT"}}}, {"name": "StatefulPartitionedCall/model/layer_normalization_3/moments/variance", "op": "Mean", "input": ["StatefulPartitionedCall/model/layer_normalization_3/moments/SquaredDifference", "StatefulPartitionedCall/model/layer_normalization_3/moments/variance/reduction_indices"], "attr": {"Tidx": {"type": "DT_INT32"}, "keep_dims": {"b": true}, "T": {"type": "DT_FLOAT"}}}, {"name": "StatefulPartitionedCall/model/layer_normalization_3/batchnorm/add", "op": "AddV2", "input": ["StatefulPartitionedCall/model/layer_normalization_3/moments/variance", "StatefulPartitionedCall/model/layer_normalization_3/batchnorm/add/y"], "attr": {"T": {"type": "DT_FLOAT"}}}, {"name": "StatefulPartitionedCall/model/layer_normalization_3/batchnorm/Rsqrt", "op": "Rsqrt", "input": ["StatefulPartitionedCall/model/layer_normalization_3/batchnorm/add"], "attr": {"T": {"type": "DT_FLOAT"}}}, {"name": "StatefulPartitionedCall/model/layer_normalization_3/batchnorm/mul", "op": "Mul", "input": ["StatefulPartitionedCall/model/layer_normalization_3/batchnorm/Rsqrt", "StatefulPartitionedCall/model/layer_normalization_3/batchnorm/mul/ReadVariableOp"], "attr": {"T": {"type": "DT_FLOAT"}}}, {"name": "StatefulPartitionedCall/model/layer_normalization_3/batchnorm/mul_2", "op": "Mul", "input": ["StatefulPartitionedCall/model/layer_normalization_3/moments/mean", "StatefulPartitionedCall/model/layer_normalization_3/batchnorm/mul"], "attr": {"T": {"type": "DT_FLOAT"}}}, {"name": "StatefulPartitionedCall/model/layer_normalization_3/batchnorm/mul_1", "op": "Mul", "input": ["StatefulPartitionedCall/model/add_2/ArithmeticOptimizer/AddOpsRewrite_add", "StatefulPartitionedCall/model/layer_normalization_3/batchnorm/mul"], "attr": {"T": {"type": "DT_FLOAT"}}}, {"name": "StatefulPartitionedCall/model/layer_normalization_3/batchnorm/sub", "op": "Sub", "input": ["StatefulPartitionedCall/model/layer_normalization_3/batchnorm/ReadVariableOp", "StatefulPartitionedCall/model/layer_normalization_3/batchnorm/mul_2"], "attr": {"T": {"type": "DT_FLOAT"}}}, {"name": "StatefulPartitionedCall/model/layer_normalization_3/batchnorm/add_1", "op": "AddV2", "input": ["StatefulPartitionedCall/model/layer_normalization_3/batchnorm/mul_1", "StatefulPartitionedCall/model/layer_normalization_3/batchnorm/sub"], "attr": {"T": {"type": "DT_FLOAT"}}}, {"name": "StatefulPartitionedCall/model/sequential_1/dense_2/Tensordot/Shape", "op": "Shape", "input": ["StatefulPartitionedCall/model/layer_normalization_3/batchnorm/add_1"], "attr": {"T": {"type": "DT_FLOAT"}, "out_type": {"type": "DT_INT32"}}}, {"name": "StatefulPartitionedCall/model/sequential_1/dense_2/Tensordot/GatherV2_1", "op": "GatherV2", "input": ["StatefulPartitionedCall/model/sequential_1/dense_2/Tensordot/Shape", "StatefulPartitionedCall/model/sequential_1/dense_2/Tensordot/axes", "StatefulPartitionedCall/model/sequential_1/dense_2/Tensordot/GatherV2_1/axis"], "attr": {"Tindices": {"type": "DT_INT32"}, "Tparams": {"type": "DT_INT32"}, "Taxis": {"type": "DT_INT32"}, "batch_dims": {"i": "0"}}}, {"name": "StatefulPartitionedCall/model/sequential_1/dense_2/Tensordot/GatherV2", "op": "GatherV2", "input": ["StatefulPartitionedCall/model/sequential_1/dense_2/Tensordot/Shape", "StatefulPartitionedCall/model/sequential_1/dense_2/Tensordot/free", "StatefulPartitionedCall/model/sequential_1/dense_2/Tensordot/GatherV2/axis"], "attr": {"Tparams": {"type": "DT_INT32"}, "Taxis": {"type": "DT_INT32"}, "batch_dims": {"i": "0"}, "Tindices": {"type": "DT_INT32"}}}, {"name": "StatefulPartitionedCall/model/sequential_1/dense_2/Tensordot/Prod_1", "op": "Prod", "input": ["StatefulPartitionedCall/model/sequential_1/dense_2/Tensordot/GatherV2_1", "StatefulPartitionedCall/model/sequential_1/dense_2/Tensordot/Const_1"], "attr": {"T": {"type": "DT_INT32"}, "keep_dims": {"b": false}, "Tidx": {"type": "DT_INT32"}}}, {"name": "StatefulPartitionedCall/model/sequential_1/dense_2/Tensordot/Prod", "op": "Prod", "input": ["StatefulPartitionedCall/model/sequential_1/dense_2/Tensordot/GatherV2", "StatefulPartitionedCall/model/sequential_1/dense_2/Tensordot/Const"], "attr": {"Tidx": {"type": "DT_INT32"}, "keep_dims": {"b": false}, "T": {"type": "DT_INT32"}}}, {"name": "StatefulPartitionedCall/model/sequential_1/dense_2/Tensordot/concat_1", "op": "ConcatV2", "input": ["StatefulPartitionedCall/model/sequential_1/dense_2/Tensordot/GatherV2", "StatefulPartitionedCall/model/sequential_1/dense_2/Tensordot/Const_2", "StatefulPartitionedCall/model/sequential_1/dense_2/Tensordot/concat_1/axis"], "attr": {"Tidx": {"type": "DT_INT32"}, "N": {"i": "2"}, "T": {"type": "DT_INT32"}}}, {"name": "StatefulPartitionedCall/model/sequential_1/dense_2/Tensordot/stack", "op": "Pack", "input": ["StatefulPartitionedCall/model/sequential_1/dense_2/Tensordot/Prod", "StatefulPartitionedCall/model/sequential_1/dense_2/Tensordot/Prod_1"], "attr": {"T": {"type": "DT_INT32"}, "axis": {"i": "0"}, "N": {"i": "2"}}}, {"name": "StatefulPartitionedCall/model/sequential_1/dense_2/Tensordot/Reshape", "op": "Reshape", "input": ["StatefulPartitionedCall/model/layer_normalization_3/batchnorm/add_1", "StatefulPartitionedCall/model/sequential_1/dense_2/Tensordot/stack"], "attr": {"Tshape": {"type": "DT_INT32"}, "T": {"type": "DT_FLOAT"}}}, {"name": "StatefulPartitionedCall/model/sequential_1/dense_2/Tensordot/MatMul", "op": "MatMul", "input": ["StatefulPartitionedCall/model/sequential_1/dense_2/Tensordot/Reshape", "StatefulPartitionedCall/model/sequential_1/dense_2/Tensordot/ReadVariableOp"], "device": "/device:CPU:0", "attr": {"transpose_a": {"b": false}, "transpose_b": {"b": false}, "T": {"type": "DT_FLOAT"}}}, {"name": "StatefulPartitionedCall/model/sequential_1/dense_2/Tensordot", "op": "Reshape", "input": ["StatefulPartitionedCall/model/sequential_1/dense_2/Tensordot/MatMul", "StatefulPartitionedCall/model/sequential_1/dense_2/Tensordot/concat_1"], "attr": {"T": {"type": "DT_FLOAT"}, "Tshape": {"type": "DT_INT32"}}}, {"name": "StatefulPartitionedCall/model/sequential_1/dense_2/BiasAdd", "op": "BiasAdd", "input": ["StatefulPartitionedCall/model/sequential_1/dense_2/Tensordot", "StatefulPartitionedCall/model/sequential_1/dense_2/BiasAdd/ReadVariableOp"], "attr": {"T": {"type": "DT_FLOAT"}, "data_format": {"s": "TkhXQw=="}}}, {"name": "StatefulPartitionedCall/model/sequential_1/dense_2/Gelu/mul", "op": "Mul", "input": ["StatefulPartitionedCall/model/sequential_1/dense_2/Gelu/mul/x", "StatefulPartitionedCall/model/sequential_1/dense_2/BiasAdd"], "attr": {"_grappler_ArithmeticOptimizer_MinimizeBroadcasts": {"b": true}, "T": {"type": "DT_FLOAT"}}}, {"name": "StatefulPartitionedCall/model/sequential_1/dense_2/Gelu/truediv", "op": "Mul", "input": ["StatefulPartitionedCall/model/sequential_1/dense_2/BiasAdd", "ConstantFolding/StatefulPartitionedCall/model/sequential_1/dense_2/Gelu/truediv_recip"], "attr": {"T": {"type": "DT_FLOAT"}}}, {"name": "StatefulPartitionedCall/model/sequential_1/dense_2/Gelu/Erf", "op": "Erf", "input": ["StatefulPartitionedCall/model/sequential_1/dense_2/Gelu/truediv"], "attr": {"T": {"type": "DT_FLOAT"}}}, {"name": "StatefulPartitionedCall/model/sequential_1/dense_2/Gelu/add", "op": "AddV2", "input": ["StatefulPartitionedCall/model/sequential_1/dense_2/Gelu/add/x", "StatefulPartitionedCall/model/sequential_1/dense_2/Gelu/Erf"], "attr": {"T": {"type": "DT_FLOAT"}}}, {"name": "StatefulPartitionedCall/model/sequential_1/dense_2/Gelu/mul_1", "op": "Mul", "input": ["StatefulPartitionedCall/model/sequential_1/dense_2/Gelu/mul", "StatefulPartitionedCall/model/sequential_1/dense_2/Gelu/add"], "attr": {"T": {"type": "DT_FLOAT"}, "_grappler_ArithmeticOptimizer_MinimizeBroadcasts": {"b": true}}}, {"name": "StatefulPartitionedCall/model/sequential_1/dense_3/Tensordot/Shape", "op": "Shape", "input": ["StatefulPartitionedCall/model/sequential_1/dense_2/Gelu/mul_1"], "attr": {"T": {"type": "DT_FLOAT"}, "out_type": {"type": "DT_INT32"}}}, {"name": "StatefulPartitionedCall/model/sequential_1/dense_3/Tensordot/GatherV2_1", "op": "GatherV2", "input": ["StatefulPartitionedCall/model/sequential_1/dense_3/Tensordot/Shape", "StatefulPartitionedCall/model/sequential_1/dense_3/Tensordot/axes", "StatefulPartitionedCall/model/sequential_1/dense_3/Tensordot/GatherV2_1/axis"], "attr": {"batch_dims": {"i": "0"}, "Taxis": {"type": "DT_INT32"}, "Tindices": {"type": "DT_INT32"}, "Tparams": {"type": "DT_INT32"}}}, {"name": "StatefulPartitionedCall/model/sequential_1/dense_3/Tensordot/GatherV2", "op": "GatherV2", "input": ["StatefulPartitionedCall/model/sequential_1/dense_3/Tensordot/Shape", "StatefulPartitionedCall/model/sequential_1/dense_3/Tensordot/free", "StatefulPartitionedCall/model/sequential_1/dense_3/Tensordot/GatherV2/axis"], "attr": {"batch_dims": {"i": "0"}, "Tindices": {"type": "DT_INT32"}, "Taxis": {"type": "DT_INT32"}, "Tparams": {"type": "DT_INT32"}}}, {"name": "StatefulPartitionedCall/model/sequential_1/dense_3/Tensordot/Prod_1", "op": "Prod", "input": ["StatefulPartitionedCall/model/sequential_1/dense_3/Tensordot/GatherV2_1", "StatefulPartitionedCall/model/sequential_1/dense_3/Tensordot/Const_1"], "attr": {"T": {"type": "DT_INT32"}, "keep_dims": {"b": false}, "Tidx": {"type": "DT_INT32"}}}, {"name": "StatefulPartitionedCall/model/sequential_1/dense_3/Tensordot/Prod", "op": "Prod", "input": ["StatefulPartitionedCall/model/sequential_1/dense_3/Tensordot/GatherV2", "StatefulPartitionedCall/model/sequential_1/dense_3/Tensordot/Const"], "attr": {"T": {"type": "DT_INT32"}, "Tidx": {"type": "DT_INT32"}, "keep_dims": {"b": false}}}, {"name": "StatefulPartitionedCall/model/sequential_1/dense_3/Tensordot/concat_1", "op": "ConcatV2", "input": ["StatefulPartitionedCall/model/sequential_1/dense_3/Tensordot/GatherV2", "StatefulPartitionedCall/model/sequential_1/dense_3/Tensordot/Const_2", "StatefulPartitionedCall/model/sequential_1/dense_3/Tensordot/concat_1/axis"], "attr": {"T": {"type": "DT_INT32"}, "Tidx": {"type": "DT_INT32"}, "N": {"i": "2"}}}, {"name": "StatefulPartitionedCall/model/sequential_1/dense_3/Tensordot/stack", "op": "Pack", "input": ["StatefulPartitionedCall/model/sequential_1/dense_3/Tensordot/Prod", "StatefulPartitionedCall/model/sequential_1/dense_3/Tensordot/Prod_1"], "attr": {"axis": {"i": "0"}, "N": {"i": "2"}, "T": {"type": "DT_INT32"}}}, {"name": "StatefulPartitionedCall/model/sequential_1/dense_3/Tensordot/Reshape", "op": "Reshape", "input": ["StatefulPartitionedCall/model/sequential_1/dense_2/Gelu/mul_1", "StatefulPartitionedCall/model/sequential_1/dense_3/Tensordot/stack"], "attr": {"Tshape": {"type": "DT_INT32"}, "T": {"type": "DT_FLOAT"}}}, {"name": "StatefulPartitionedCall/model/sequential_1/dense_3/Tensordot/MatMul", "op": "MatMul", "input": ["StatefulPartitionedCall/model/sequential_1/dense_3/Tensordot/Reshape", "StatefulPartitionedCall/model/sequential_1/dense_3/Tensordot/ReadVariableOp"], "device": "/device:CPU:0", "attr": {"transpose_a": {"b": false}, "T": {"type": "DT_FLOAT"}, "transpose_b": {"b": false}}}, {"name": "StatefulPartitionedCall/model/sequential_1/dense_3/Tensordot", "op": "Reshape", "input": ["StatefulPartitionedCall/model/sequential_1/dense_3/Tensordot/MatMul", "StatefulPartitionedCall/model/sequential_1/dense_3/Tensordot/concat_1"], "attr": {"Tshape": {"type": "DT_INT32"}, "T": {"type": "DT_FLOAT"}}}, {"name": "StatefulPartitionedCall/model/sequential_1/dense_3/BiasAdd", "op": "BiasAdd", "input": ["StatefulPartitionedCall/model/sequential_1/dense_3/Tensordot", "StatefulPartitionedCall/model/sequential_1/dense_3/BiasAdd/ReadVariableOp"], "attr": {"T": {"type": "DT_FLOAT"}, "data_format": {"s": "TkhXQw=="}}}, {"name": "StatefulPartitionedCall/model/sequential_1/dense_3/Gelu/mul", "op": "Mul", "input": ["StatefulPartitionedCall/model/sequential_1/dense_3/Gelu/mul/x", "StatefulPartitionedCall/model/sequential_1/dense_3/BiasAdd"], "attr": {"_grappler_ArithmeticOptimizer_MinimizeBroadcasts": {"b": true}, "T": {"type": "DT_FLOAT"}}}, {"name": "StatefulPartitionedCall/model/sequential_1/dense_3/Gelu/truediv", "op": "Mul", "input": ["StatefulPartitionedCall/model/sequential_1/dense_3/BiasAdd", "ConstantFolding/StatefulPartitionedCall/model/sequential_1/dense_3/Gelu/truediv_recip"], "attr": {"T": {"type": "DT_FLOAT"}}}, {"name": "StatefulPartitionedCall/model/sequential_1/dense_3/Gelu/Erf", "op": "Erf", "input": ["StatefulPartitionedCall/model/sequential_1/dense_3/Gelu/truediv"], "attr": {"T": {"type": "DT_FLOAT"}}}, {"name": "StatefulPartitionedCall/model/sequential_1/dense_3/Gelu/add", "op": "AddV2", "input": ["StatefulPartitionedCall/model/sequential_1/dense_3/Gelu/add/x", "StatefulPartitionedCall/model/sequential_1/dense_3/Gelu/Erf"], "attr": {"T": {"type": "DT_FLOAT"}}}, {"name": "StatefulPartitionedCall/model/sequential_1/dense_3/Gelu/mul_1", "op": "Mul", "input": ["StatefulPartitionedCall/model/sequential_1/dense_3/Gelu/mul", "StatefulPartitionedCall/model/sequential_1/dense_3/Gelu/add"], "attr": {"_grappler_ArithmeticOptimizer_MinimizeBroadcasts": {"b": true}, "T": {"type": "DT_FLOAT"}}}, {"name": "StatefulPartitionedCall/model/add_3/add", "op": "AddV2", "input": ["StatefulPartitionedCall/model/sequential_1/dense_3/Gelu/mul_1", "StatefulPartitionedCall/model/add_2/ArithmeticOptimizer/AddOpsRewrite_add"], "attr": {"T": {"type": "DT_FLOAT"}}}, {"name": "StatefulPartitionedCall/model/layer_normalization_4/moments/mean", "op": "Mean", "input": ["StatefulPartitionedCall/model/add_3/add", "StatefulPartitionedCall/model/layer_normalization_4/moments/mean/reduction_indices"], "attr": {"keep_dims": {"b": true}, "Tidx": {"type": "DT_INT32"}, "T": {"type": "DT_FLOAT"}}}, {"name": "StatefulPartitionedCall/model/layer_normalization_4/moments/SquaredDifference", "op": "SquaredDifference", "input": ["StatefulPartitionedCall/model/add_3/add", "StatefulPartitionedCall/model/layer_normalization_4/moments/mean"], "attr": {"T": {"type": "DT_FLOAT"}}}, {"name": "StatefulPartitionedCall/model/layer_normalization_4/moments/variance", "op": "Mean", "input": ["StatefulPartitionedCall/model/layer_normalization_4/moments/SquaredDifference", "StatefulPartitionedCall/model/layer_normalization_4/moments/variance/reduction_indices"], "attr": {"Tidx": {"type": "DT_INT32"}, "T": {"type": "DT_FLOAT"}, "keep_dims": {"b": true}}}, {"name": "StatefulPartitionedCall/model/layer_normalization_4/batchnorm/add", "op": "AddV2", "input": ["StatefulPartitionedCall/model/layer_normalization_4/moments/variance", "StatefulPartitionedCall/model/layer_normalization_4/batchnorm/add/y"], "attr": {"T": {"type": "DT_FLOAT"}}}, {"name": "StatefulPartitionedCall/model/layer_normalization_4/batchnorm/Rsqrt", "op": "Rsqrt", "input": ["StatefulPartitionedCall/model/layer_normalization_4/batchnorm/add"], "attr": {"T": {"type": "DT_FLOAT"}}}, {"name": "StatefulPartitionedCall/model/layer_normalization_4/batchnorm/mul", "op": "Mul", "input": ["StatefulPartitionedCall/model/layer_normalization_4/batchnorm/Rsqrt", "StatefulPartitionedCall/model/layer_normalization_4/batchnorm/mul/ReadVariableOp"], "attr": {"T": {"type": "DT_FLOAT"}}}, {"name": "StatefulPartitionedCall/model/layer_normalization_4/batchnorm/mul_2", "op": "Mul", "input": ["StatefulPartitionedCall/model/layer_normalization_4/moments/mean", "StatefulPartitionedCall/model/layer_normalization_4/batchnorm/mul"], "attr": {"T": {"type": "DT_FLOAT"}}}, {"name": "StatefulPartitionedCall/model/layer_normalization_4/batchnorm/mul_1", "op": "Mul", "input": ["StatefulPartitionedCall/model/add_3/add", "StatefulPartitionedCall/model/layer_normalization_4/batchnorm/mul"], "attr": {"T": {"type": "DT_FLOAT"}}}, {"name": "StatefulPartitionedCall/model/layer_normalization_4/batchnorm/sub", "op": "Sub", "input": ["StatefulPartitionedCall/model/layer_normalization_4/batchnorm/ReadVariableOp", "StatefulPartitionedCall/model/layer_normalization_4/batchnorm/mul_2"], "attr": {"T": {"type": "DT_FLOAT"}}}, {"name": "StatefulPartitionedCall/model/layer_normalization_4/batchnorm/add_1", "op": "AddV2", "input": ["StatefulPartitionedCall/model/layer_normalization_4/batchnorm/mul_1", "StatefulPartitionedCall/model/layer_normalization_4/batchnorm/sub"], "attr": {"T": {"type": "DT_FLOAT"}}}, {"name": "StatefulPartitionedCall/model/multi_head_attention_2/key/einsum/Einsum", "op": "Einsum", "input": ["StatefulPartitionedCall/model/layer_normalization_4/batchnorm/add_1", "StatefulPartitionedCall/model/multi_head_attention_2/key/einsum/Einsum/ReadVariableOp"], "attr": {"equation": {"s": "YWJjLGNkZS0+YWJkZQ=="}, "N": {"i": "2"}, "T": {"type": "DT_FLOAT"}}}, {"name": "StatefulPartitionedCall/model/multi_head_attention_2/query/einsum/Einsum", "op": "Einsum", "input": ["StatefulPartitionedCall/model/layer_normalization_4/batchnorm/add_1", "StatefulPartitionedCall/model/multi_head_attention_2/query/einsum/Einsum/ReadVariableOp"], "attr": {"N": {"i": "2"}, "T": {"type": "DT_FLOAT"}, "equation": {"s": "YWJjLGNkZS0+YWJkZQ=="}}}, {"name": "StatefulPartitionedCall/model/multi_head_attention_2/value/einsum/Einsum", "op": "Einsum", "input": ["StatefulPartitionedCall/model/layer_normalization_4/batchnorm/add_1", "StatefulPartitionedCall/model/multi_head_attention_2/value/einsum/Einsum/ReadVariableOp"], "attr": {"T": {"type": "DT_FLOAT"}, "N": {"i": "2"}, "equation": {"s": "YWJjLGNkZS0+YWJkZQ=="}}}, {"name": "StatefulPartitionedCall/model/multi_head_attention_2/key/add", "op": "AddV2", "input": ["StatefulPartitionedCall/model/multi_head_attention_2/key/einsum/Einsum", "StatefulPartitionedCall/model/multi_head_attention_2/key/add/ReadVariableOp"], "attr": {"T": {"type": "DT_FLOAT"}}}, {"name": "StatefulPartitionedCall/model/multi_head_attention_2/query/add", "op": "AddV2", "input": ["StatefulPartitionedCall/model/multi_head_attention_2/query/einsum/Einsum", "StatefulPartitionedCall/model/multi_head_attention_2/query/add/ReadVariableOp"], "attr": {"T": {"type": "DT_FLOAT"}}}, {"name": "StatefulPartitionedCall/model/multi_head_attention_2/value/add", "op": "AddV2", "input": ["StatefulPartitionedCall/model/multi_head_attention_2/value/einsum/Einsum", "StatefulPartitionedCall/model/multi_head_attention_2/value/add/ReadVariableOp"], "attr": {"T": {"type": "DT_FLOAT"}}}, {"name": "StatefulPartitionedCall/model/multi_head_attention_2/Mul", "op": "Mul", "input": ["StatefulPartitionedCall/model/multi_head_attention_2/query/add", "StatefulPartitionedCall/model/multi_head_attention_2/Mul/y"], "attr": {"T": {"type": "DT_FLOAT"}}}, {"name": "StatefulPartitionedCall/model/multi_head_attention_2/einsum/Einsum", "op": "Einsum", "input": ["StatefulPartitionedCall/model/multi_head_attention_2/key/add", "StatefulPartitionedCall/model/multi_head_attention_2/Mul"], "attr": {"equation": {"s": "YWVjZCxhYmNkLT5hY2Jl"}, "T": {"type": "DT_FLOAT"}, "N": {"i": "2"}}}, {"name": "StatefulPartitionedCall/model/multi_head_attention_2/softmax/Softmax", "op": "Softmax", "input": ["StatefulPartitionedCall/model/multi_head_attention_2/einsum/Einsum"], "attr": {"T": {"type": "DT_FLOAT"}}}, {"name": "StatefulPartitionedCall/model/multi_head_attention_2/einsum_1/Einsum", "op": "Einsum", "input": ["StatefulPartitionedCall/model/multi_head_attention_2/softmax/Softmax", "StatefulPartitionedCall/model/multi_head_attention_2/value/add"], "attr": {"N": {"i": "2"}, "T": {"type": "DT_FLOAT"}, "equation": {"s": "YWNiZSxhZWNkLT5hYmNk"}}}, {"name": "StatefulPartitionedCall/model/multi_head_attention_2/attention_output/einsum/Einsum", "op": "Einsum", "input": ["StatefulPartitionedCall/model/multi_head_attention_2/einsum_1/Einsum", "StatefulPartitionedCall/model/multi_head_attention_2/attention_output/einsum/Einsum/ReadVariableOp"], "attr": {"T": {"type": "DT_FLOAT"}, "equation": {"s": "YWJjZCxjZGUtPmFiZQ=="}, "N": {"i": "2"}}}, {"name": "StatefulPartitionedCall/model/add_4/ArithmeticOptimizer/AddOpsRewrite_Leaf_1_add", "op": "AddN", "input": ["StatefulPartitionedCall/model/multi_head_attention_2/attention_output/einsum/Einsum", "StatefulPartitionedCall/model/add_3/add"], "attr": {"_grappler_ArithmeticOptimizer_AddOpsRewriteStage": {"b": true}, "T": {"type": "DT_FLOAT"}, "N": {"i": "2"}}}, {"name": "StatefulPartitionedCall/model/add_4/ArithmeticOptimizer/AddOpsRewrite_add", "op": "AddV2", "input": ["StatefulPartitionedCall/model/multi_head_attention_2/attention_output/add/ReadVariableOp", "StatefulPartitionedCall/model/add_4/ArithmeticOptimizer/AddOpsRewrite_Leaf_1_add"], "attr": {"_grappler_ArithmeticOptimizer_AddOpsRewriteStage": {"b": true}, "T": {"type": "DT_FLOAT"}}}, {"name": "StatefulPartitionedCall/model/layer_normalization_5/moments/mean", "op": "Mean", "input": ["StatefulPartitionedCall/model/add_4/ArithmeticOptimizer/AddOpsRewrite_add", "StatefulPartitionedCall/model/layer_normalization_5/moments/mean/reduction_indices"], "attr": {"Tidx": {"type": "DT_INT32"}, "T": {"type": "DT_FLOAT"}, "keep_dims": {"b": true}}}, {"name": "StatefulPartitionedCall/model/layer_normalization_5/moments/SquaredDifference", "op": "SquaredDifference", "input": ["StatefulPartitionedCall/model/add_4/ArithmeticOptimizer/AddOpsRewrite_add", "StatefulPartitionedCall/model/layer_normalization_5/moments/mean"], "attr": {"T": {"type": "DT_FLOAT"}}}, {"name": "StatefulPartitionedCall/model/layer_normalization_5/moments/variance", "op": "Mean", "input": ["StatefulPartitionedCall/model/layer_normalization_5/moments/SquaredDifference", "StatefulPartitionedCall/model/layer_normalization_5/moments/variance/reduction_indices"], "attr": {"Tidx": {"type": "DT_INT32"}, "T": {"type": "DT_FLOAT"}, "keep_dims": {"b": true}}}, {"name": "StatefulPartitionedCall/model/layer_normalization_5/batchnorm/add", "op": "AddV2", "input": ["StatefulPartitionedCall/model/layer_normalization_5/moments/variance", "StatefulPartitionedCall/model/layer_normalization_5/batchnorm/add/y"], "attr": {"T": {"type": "DT_FLOAT"}}}, {"name": "StatefulPartitionedCall/model/layer_normalization_5/batchnorm/Rsqrt", "op": "Rsqrt", "input": ["StatefulPartitionedCall/model/layer_normalization_5/batchnorm/add"], "attr": {"T": {"type": "DT_FLOAT"}}}, {"name": "StatefulPartitionedCall/model/layer_normalization_5/batchnorm/mul", "op": "Mul", "input": ["StatefulPartitionedCall/model/layer_normalization_5/batchnorm/Rsqrt", "StatefulPartitionedCall/model/layer_normalization_5/batchnorm/mul/ReadVariableOp"], "attr": {"T": {"type": "DT_FLOAT"}}}, {"name": "StatefulPartitionedCall/model/layer_normalization_5/batchnorm/mul_2", "op": "Mul", "input": ["StatefulPartitionedCall/model/layer_normalization_5/moments/mean", "StatefulPartitionedCall/model/layer_normalization_5/batchnorm/mul"], "attr": {"T": {"type": "DT_FLOAT"}}}, {"name": "StatefulPartitionedCall/model/layer_normalization_5/batchnorm/mul_1", "op": "Mul", "input": ["StatefulPartitionedCall/model/add_4/ArithmeticOptimizer/AddOpsRewrite_add", "StatefulPartitionedCall/model/layer_normalization_5/batchnorm/mul"], "attr": {"T": {"type": "DT_FLOAT"}}}, {"name": "StatefulPartitionedCall/model/layer_normalization_5/batchnorm/sub", "op": "Sub", "input": ["StatefulPartitionedCall/model/layer_normalization_5/batchnorm/ReadVariableOp", "StatefulPartitionedCall/model/layer_normalization_5/batchnorm/mul_2"], "attr": {"T": {"type": "DT_FLOAT"}}}, {"name": "StatefulPartitionedCall/model/layer_normalization_5/batchnorm/add_1", "op": "AddV2", "input": ["StatefulPartitionedCall/model/layer_normalization_5/batchnorm/mul_1", "StatefulPartitionedCall/model/layer_normalization_5/batchnorm/sub"], "attr": {"T": {"type": "DT_FLOAT"}}}, {"name": "StatefulPartitionedCall/model/sequential_2/dense_4/Tensordot/Shape", "op": "Shape", "input": ["StatefulPartitionedCall/model/layer_normalization_5/batchnorm/add_1"], "attr": {"T": {"type": "DT_FLOAT"}, "out_type": {"type": "DT_INT32"}}}, {"name": "StatefulPartitionedCall/model/sequential_2/dense_4/Tensordot/GatherV2_1", "op": "GatherV2", "input": ["StatefulPartitionedCall/model/sequential_2/dense_4/Tensordot/Shape", "StatefulPartitionedCall/model/sequential_2/dense_4/Tensordot/axes", "StatefulPartitionedCall/model/sequential_2/dense_4/Tensordot/GatherV2_1/axis"], "attr": {"batch_dims": {"i": "0"}, "Tindices": {"type": "DT_INT32"}, "Tparams": {"type": "DT_INT32"}, "Taxis": {"type": "DT_INT32"}}}, {"name": "StatefulPartitionedCall/model/sequential_2/dense_4/Tensordot/GatherV2", "op": "GatherV2", "input": ["StatefulPartitionedCall/model/sequential_2/dense_4/Tensordot/Shape", "StatefulPartitionedCall/model/sequential_2/dense_4/Tensordot/free", "StatefulPartitionedCall/model/sequential_2/dense_4/Tensordot/GatherV2/axis"], "attr": {"batch_dims": {"i": "0"}, "Tparams": {"type": "DT_INT32"}, "Taxis": {"type": "DT_INT32"}, "Tindices": {"type": "DT_INT32"}}}, {"name": "StatefulPartitionedCall/model/sequential_2/dense_4/Tensordot/Prod_1", "op": "Prod", "input": ["StatefulPartitionedCall/model/sequential_2/dense_4/Tensordot/GatherV2_1", "StatefulPartitionedCall/model/sequential_2/dense_4/Tensordot/Const_1"], "attr": {"Tidx": {"type": "DT_INT32"}, "keep_dims": {"b": false}, "T": {"type": "DT_INT32"}}}, {"name": "StatefulPartitionedCall/model/sequential_2/dense_4/Tensordot/Prod", "op": "Prod", "input": ["StatefulPartitionedCall/model/sequential_2/dense_4/Tensordot/GatherV2", "StatefulPartitionedCall/model/sequential_2/dense_4/Tensordot/Const"], "attr": {"keep_dims": {"b": false}, "T": {"type": "DT_INT32"}, "Tidx": {"type": "DT_INT32"}}}, {"name": "StatefulPartitionedCall/model/sequential_2/dense_4/Tensordot/concat_1", "op": "ConcatV2", "input": ["StatefulPartitionedCall/model/sequential_2/dense_4/Tensordot/GatherV2", "StatefulPartitionedCall/model/sequential_2/dense_4/Tensordot/Const_2", "StatefulPartitionedCall/model/sequential_2/dense_4/Tensordot/concat_1/axis"], "attr": {"N": {"i": "2"}, "Tidx": {"type": "DT_INT32"}, "T": {"type": "DT_INT32"}}}, {"name": "StatefulPartitionedCall/model/sequential_2/dense_4/Tensordot/stack", "op": "Pack", "input": ["StatefulPartitionedCall/model/sequential_2/dense_4/Tensordot/Prod", "StatefulPartitionedCall/model/sequential_2/dense_4/Tensordot/Prod_1"], "attr": {"T": {"type": "DT_INT32"}, "N": {"i": "2"}, "axis": {"i": "0"}}}, {"name": "StatefulPartitionedCall/model/sequential_2/dense_4/Tensordot/Reshape", "op": "Reshape", "input": ["StatefulPartitionedCall/model/layer_normalization_5/batchnorm/add_1", "StatefulPartitionedCall/model/sequential_2/dense_4/Tensordot/stack"], "attr": {"Tshape": {"type": "DT_INT32"}, "T": {"type": "DT_FLOAT"}}}, {"name": "StatefulPartitionedCall/model/sequential_2/dense_4/Tensordot/MatMul", "op": "MatMul", "input": ["StatefulPartitionedCall/model/sequential_2/dense_4/Tensordot/Reshape", "StatefulPartitionedCall/model/sequential_2/dense_4/Tensordot/ReadVariableOp"], "device": "/device:CPU:0", "attr": {"T": {"type": "DT_FLOAT"}, "transpose_a": {"b": false}, "transpose_b": {"b": false}}}, {"name": "StatefulPartitionedCall/model/sequential_2/dense_4/Tensordot", "op": "Reshape", "input": ["StatefulPartitionedCall/model/sequential_2/dense_4/Tensordot/MatMul", "StatefulPartitionedCall/model/sequential_2/dense_4/Tensordot/concat_1"], "attr": {"T": {"type": "DT_FLOAT"}, "Tshape": {"type": "DT_INT32"}}}, {"name": "StatefulPartitionedCall/model/sequential_2/dense_4/BiasAdd", "op": "BiasAdd", "input": ["StatefulPartitionedCall/model/sequential_2/dense_4/Tensordot", "StatefulPartitionedCall/model/sequential_2/dense_4/BiasAdd/ReadVariableOp"], "attr": {"data_format": {"s": "TkhXQw=="}, "T": {"type": "DT_FLOAT"}}}, {"name": "StatefulPartitionedCall/model/sequential_2/dense_4/Gelu/mul", "op": "Mul", "input": ["StatefulPartitionedCall/model/sequential_2/dense_4/Gelu/mul/x", "StatefulPartitionedCall/model/sequential_2/dense_4/BiasAdd"], "attr": {"T": {"type": "DT_FLOAT"}, "_grappler_ArithmeticOptimizer_MinimizeBroadcasts": {"b": true}}}, {"name": "StatefulPartitionedCall/model/sequential_2/dense_4/Gelu/truediv", "op": "Mul", "input": ["StatefulPartitionedCall/model/sequential_2/dense_4/BiasAdd", "ConstantFolding/StatefulPartitionedCall/model/sequential_2/dense_4/Gelu/truediv_recip"], "attr": {"T": {"type": "DT_FLOAT"}}}, {"name": "StatefulPartitionedCall/model/sequential_2/dense_4/Gelu/Erf", "op": "Erf", "input": ["StatefulPartitionedCall/model/sequential_2/dense_4/Gelu/truediv"], "attr": {"T": {"type": "DT_FLOAT"}}}, {"name": "StatefulPartitionedCall/model/sequential_2/dense_4/Gelu/add", "op": "AddV2", "input": ["StatefulPartitionedCall/model/sequential_2/dense_4/Gelu/add/x", "StatefulPartitionedCall/model/sequential_2/dense_4/Gelu/Erf"], "attr": {"T": {"type": "DT_FLOAT"}}}, {"name": "StatefulPartitionedCall/model/sequential_2/dense_4/Gelu/mul_1", "op": "Mul", "input": ["StatefulPartitionedCall/model/sequential_2/dense_4/Gelu/mul", "StatefulPartitionedCall/model/sequential_2/dense_4/Gelu/add"], "attr": {"T": {"type": "DT_FLOAT"}, "_grappler_ArithmeticOptimizer_MinimizeBroadcasts": {"b": true}}}, {"name": "StatefulPartitionedCall/model/sequential_2/dense_5/Tensordot/Shape", "op": "Shape", "input": ["StatefulPartitionedCall/model/sequential_2/dense_4/Gelu/mul_1"], "attr": {"out_type": {"type": "DT_INT32"}, "T": {"type": "DT_FLOAT"}}}, {"name": "StatefulPartitionedCall/model/sequential_2/dense_5/Tensordot/GatherV2_1", "op": "GatherV2", "input": ["StatefulPartitionedCall/model/sequential_2/dense_5/Tensordot/Shape", "StatefulPartitionedCall/model/sequential_2/dense_5/Tensordot/axes", "StatefulPartitionedCall/model/sequential_2/dense_5/Tensordot/GatherV2_1/axis"], "attr": {"Taxis": {"type": "DT_INT32"}, "batch_dims": {"i": "0"}, "Tindices": {"type": "DT_INT32"}, "Tparams": {"type": "DT_INT32"}}}, {"name": "StatefulPartitionedCall/model/sequential_2/dense_5/Tensordot/GatherV2", "op": "GatherV2", "input": ["StatefulPartitionedCall/model/sequential_2/dense_5/Tensordot/Shape", "StatefulPartitionedCall/model/sequential_2/dense_5/Tensordot/free", "StatefulPartitionedCall/model/sequential_2/dense_5/Tensordot/GatherV2/axis"], "attr": {"batch_dims": {"i": "0"}, "Tparams": {"type": "DT_INT32"}, "Tindices": {"type": "DT_INT32"}, "Taxis": {"type": "DT_INT32"}}}, {"name": "StatefulPartitionedCall/model/sequential_2/dense_5/Tensordot/Prod_1", "op": "Prod", "input": ["StatefulPartitionedCall/model/sequential_2/dense_5/Tensordot/GatherV2_1", "StatefulPartitionedCall/model/sequential_2/dense_5/Tensordot/Const_1"], "attr": {"Tidx": {"type": "DT_INT32"}, "T": {"type": "DT_INT32"}, "keep_dims": {"b": false}}}, {"name": "StatefulPartitionedCall/model/sequential_2/dense_5/Tensordot/Prod", "op": "Prod", "input": ["StatefulPartitionedCall/model/sequential_2/dense_5/Tensordot/GatherV2", "StatefulPartitionedCall/model/sequential_2/dense_5/Tensordot/Const"], "attr": {"keep_dims": {"b": false}, "T": {"type": "DT_INT32"}, "Tidx": {"type": "DT_INT32"}}}, {"name": "StatefulPartitionedCall/model/sequential_2/dense_5/Tensordot/concat_1", "op": "ConcatV2", "input": ["StatefulPartitionedCall/model/sequential_2/dense_5/Tensordot/GatherV2", "StatefulPartitionedCall/model/sequential_2/dense_5/Tensordot/Const_2", "StatefulPartitionedCall/model/sequential_2/dense_5/Tensordot/concat_1/axis"], "attr": {"Tidx": {"type": "DT_INT32"}, "N": {"i": "2"}, "T": {"type": "DT_INT32"}}}, {"name": "StatefulPartitionedCall/model/sequential_2/dense_5/Tensordot/stack", "op": "Pack", "input": ["StatefulPartitionedCall/model/sequential_2/dense_5/Tensordot/Prod", "StatefulPartitionedCall/model/sequential_2/dense_5/Tensordot/Prod_1"], "attr": {"N": {"i": "2"}, "axis": {"i": "0"}, "T": {"type": "DT_INT32"}}}, {"name": "StatefulPartitionedCall/model/sequential_2/dense_5/Tensordot/Reshape", "op": "Reshape", "input": ["StatefulPartitionedCall/model/sequential_2/dense_4/Gelu/mul_1", "StatefulPartitionedCall/model/sequential_2/dense_5/Tensordot/stack"], "attr": {"T": {"type": "DT_FLOAT"}, "Tshape": {"type": "DT_INT32"}}}, {"name": "StatefulPartitionedCall/model/sequential_2/dense_5/Tensordot/MatMul", "op": "MatMul", "input": ["StatefulPartitionedCall/model/sequential_2/dense_5/Tensordot/Reshape", "StatefulPartitionedCall/model/sequential_2/dense_5/Tensordot/ReadVariableOp"], "device": "/device:CPU:0", "attr": {"T": {"type": "DT_FLOAT"}, "transpose_a": {"b": false}, "transpose_b": {"b": false}}}, {"name": "StatefulPartitionedCall/model/sequential_2/dense_5/Tensordot", "op": "Reshape", "input": ["StatefulPartitionedCall/model/sequential_2/dense_5/Tensordot/MatMul", "StatefulPartitionedCall/model/sequential_2/dense_5/Tensordot/concat_1"], "attr": {"Tshape": {"type": "DT_INT32"}, "T": {"type": "DT_FLOAT"}}}, {"name": "StatefulPartitionedCall/model/sequential_2/dense_5/BiasAdd", "op": "BiasAdd", "input": ["StatefulPartitionedCall/model/sequential_2/dense_5/Tensordot", "StatefulPartitionedCall/model/sequential_2/dense_5/BiasAdd/ReadVariableOp"], "attr": {"T": {"type": "DT_FLOAT"}, "data_format": {"s": "TkhXQw=="}}}, {"name": "StatefulPartitionedCall/model/sequential_2/dense_5/Gelu/mul", "op": "Mul", "input": ["StatefulPartitionedCall/model/sequential_2/dense_5/Gelu/mul/x", "StatefulPartitionedCall/model/sequential_2/de…
INT32"}}}, {"name": "StatefulPartitionedCall/model/layer_normalization_16/moments/SquaredDifference", "op": "SquaredDifference", "input": ["StatefulPartitionedCall/model/add_15/add", "StatefulPartitionedCall/model/layer_normalization_16/moments/mean"], "attr": {"T": {"type": "DT_FLOAT"}}}, {"name": "StatefulPartitionedCall/model/layer_normalization_16/moments/variance", "op": "Mean", "input": ["StatefulPartitionedCall/model/layer_normalization_16/moments/SquaredDifference", "StatefulPartitionedCall/model/layer_normalization_16/moments/variance/reduction_indices"], "attr": {"T": {"type": "DT_FLOAT"}, "keep_dims": {"b": true}, "Tidx": {"type": "DT_INT32"}}}, {"name": "StatefulPartitionedCall/model/layer_normalization_16/batchnorm/add", "op": "AddV2", "input": ["StatefulPartitionedCall/model/layer_normalization_16/moments/variance", "StatefulPartitionedCall/model/layer_normalization_16/batchnorm/add/y"], "attr": {"T": {"type": "DT_FLOAT"}}}, {"name": "StatefulPartitionedCall/model/layer_normalization_16/batchnorm/Rsqrt", "op": "Rsqrt", "input": ["StatefulPartitionedCall/model/layer_normalization_16/batchnorm/add"], "attr": {"T": {"type": "DT_FLOAT"}}}, {"name": "StatefulPartitionedCall/model/layer_normalization_16/batchnorm/mul", "op": "Mul", "input": ["StatefulPartitionedCall/model/layer_normalization_16/batchnorm/Rsqrt", "StatefulPartitionedCall/model/layer_normalization_16/batchnorm/mul/ReadVariableOp"], "attr": {"T": {"type": "DT_FLOAT"}}}, {"name": "StatefulPartitionedCall/model/layer_normalization_16/batchnorm/mul_2", "op": "Mul", "input": ["StatefulPartitionedCall/model/layer_normalization_16/moments/mean", "StatefulPartitionedCall/model/layer_normalization_16/batchnorm/mul"], "attr": {"T": {"type": "DT_FLOAT"}}}, {"name": "StatefulPartitionedCall/model/layer_normalization_16/batchnorm/mul_1", "op": "Mul", "input": ["StatefulPartitionedCall/model/add_15/add", "StatefulPartitionedCall/model/layer_normalization_16/batchnorm/mul"], "attr": {"T": {"type": "DT_FLOAT"}}}, {"name": "StatefulPartitionedCall/model/layer_normalization_16/batchnorm/sub", "op": "Sub", "input": ["StatefulPartitionedCall/model/layer_normalization_16/batchnorm/ReadVariableOp", "StatefulPartitionedCall/model/layer_normalization_16/batchnorm/mul_2"], "attr": {"T": {"type": "DT_FLOAT"}}}, {"name": "StatefulPartitionedCall/model/layer_normalization_16/batchnorm/add_1", "op": "AddV2", "input": ["StatefulPartitionedCall/model/layer_normalization_16/batchnorm/mul_1", "StatefulPartitionedCall/model/layer_normalization_16/batchnorm/sub"], "attr": {"T": {"type": "DT_FLOAT"}}}, {"name": "StatefulPartitionedCall/model/global_average_pooling1d/Mean", "op": "Mean", "input": ["StatefulPartitionedCall/model/layer_normalization_16/batchnorm/add_1", "StatefulPartitionedCall/model/global_average_pooling1d/Mean/reduction_indices"], "attr": {"T": {"type": "DT_FLOAT"}, "keep_dims": {"b": false}, "Tidx": {"type": "DT_INT32"}}}, {"name": "StatefulPartitionedCall/model/dense_16/BiasAdd", "op": "_FusedMatMul", "input": ["StatefulPartitionedCall/model/global_average_pooling1d/Mean", "StatefulPartitionedCall/model/dense_16/MatMul/ReadVariableOp", "StatefulPartitionedCall/model/dense_16/BiasAdd/ReadVariableOp"], "device": "/device:CPU:0", "attr": {"epsilon": {"f": 0.0}, "transpose_a": {"b": false}, "num_args": {"i": "1"}, "T": {"type": "DT_FLOAT"}, "fused_ops": {"list": {"s": ["Qmlhc0FkZA=="]}}, "transpose_b": {"b": false}}}, {"name": "StatefulPartitionedCall/model/dense_16/Softmax", "op": "Softmax", "input": ["StatefulPartitionedCall/model/dense_16/BiasAdd"], "attr": {"T": {"type": "DT_FLOAT"}}}, {"name": "Identity", "op": "Identity", "input": ["StatefulPartitionedCall/model/dense_16/Softmax"], "attr": {"T": {"type": "DT_FLOAT"}}}], "library": {}, "versions": {"producer": 987}}, "weightsManifest": [{"paths": ["group1-shard1of2.bin", "group1-shard2of2.bin"], "weights": [{"name": "StatefulPartitionedCall/model/layer_normalization_16/batchnorm/ReadVariableOp", "shape": [128], "dtype": "float32"}, {"name": "StatefulPartitionedCall/model/sequential_7/dense_15/Gelu/mul/x", "shape": [], "dtype": "float32"}, {"name": "StatefulPartitionedCall/model/sequential_7/dense_15/Gelu/add/x", "shape": [], "dtype": "float32"}, {"name": "StatefulPartitionedCall/model/sequential_7/dense_15/Tensordot/Const", "shape": [1], "dtype": "int32"}, {"name": "StatefulPartitionedCall/model/sequential_7/dense_15/Tensordot/axes", "shape": [1], "dtype": "int32"}, {"name": "StatefulPartitionedCall/model/sequential_7/dense_15/Tensordot/GatherV2_1/axis", "shape": [], "dtype": "int32"}, {"name": "StatefulPartitionedCall/model/sequential_7/dense_15/Tensordot/Const_1", "shape": [1], "dtype": "int32"}, {"name": "StatefulPartitionedCall/model/sequential_7/dense_15/Tensordot/ReadVariableOp", "shape": [512, 128], "dtype": "float32"}, {"name": "StatefulPartitionedCall/model/sequential_7/dense_14/Gelu/mul/x", "shape": [], "dtype": "float32"}, {"name": "StatefulPartitionedCall/model/sequential_7/dense_14/Gelu/add/x", "shape": [], "dtype": "float32"}, {"name": "StatefulPartitionedCall/model/sequential_7/dense_14/Tensordot/Const", "shape": [1], "dtype": "int32"}, {"name": "StatefulPartitionedCall/model/sequential_7/dense_14/Tensordot/axes", "shape": [1], "dtype": "int32"}, {"name": "StatefulPartitionedCall/model/sequential_7/dense_14/Tensordot/GatherV2_1/axis", "shape": [], "dtype": "int32"}, {"name": "StatefulPartitionedCall/model/sequential_7/dense_14/Tensordot/Const_1", "shape": [1], "dtype": "int32"}, {"name": "StatefulPartitionedCall/model/sequential_7/dense_14/Tensordot/ReadVariableOp", "shape": [128, 512], "dtype": "float32"}, {"name": "StatefulPartitionedCall/model/layer_normalization_15/batchnorm/ReadVariableOp", "shape": [128], "dtype": "float32"}, {"name": "StatefulPartitionedCall/model/layer_normalization_15/moments/mean/reduction_indices", "shape": [1], "dtype": "int32"}, {"name": "StatefulPartitionedCall/model/layer_normalization_15/moments/variance/reduction_indices", "shape": [1], "dtype": "int32"}, {"name": "StatefulPartitionedCall/model/layer_normalization_15/batchnorm/add/y", "shape": [], "dtype": "float32"}, {"name": "StatefulPartitionedCall/model/layer_normalization_15/batchnorm/mul/ReadVariableOp", "shape": [128], "dtype": "float32"}, {"name": "StatefulPartitionedCall/model/sequential_7/dense_14/Tensordot/free", "shape": [2], "dtype": "int32"}, {"name": "StatefulPartitionedCall/model/sequential_7/dense_14/Tensordot/GatherV2/axis", "shape": [], "dtype": "int32"}, {"name": "StatefulPartitionedCall/model/sequential_7/dense_14/Tensordot/Const_2", "shape": [1], "dtype": "int32"}, {"name": "StatefulPartitionedCall/model/sequential_7/dense_14/Tensordot/concat_1/axis", "shape": [], "dtype": "int32"}, {"name": "StatefulPartitionedCall/model/sequential_7/dense_14/BiasAdd/ReadVariableOp", "shape": [512], "dtype": "float32"}, {"name": "ConstantFolding/StatefulPartitionedCall/model/sequential_7/dense_14/Gelu/truediv_recip", "shape": [], "dtype": "float32"}, {"name": "StatefulPartitionedCall/model/sequential_7/dense_15/Tensordot/free", "shape": [2], "dtype": "int32"}, {"name": "StatefulPartitionedCall/model/sequential_7/dense_15/Tensordot/GatherV2/axis", "shape": [], "dtype": "int32"}, {"name": "StatefulPartitionedCall/model/sequential_7/dense_15/Tensordot/Const_2", "shape": [1], "dtype": "int32"}, {"name": "StatefulPartitionedCall/model/sequential_7/dense_15/Tensordot/concat_1/axis", "shape": [], "dtype": "int32"}, {"name": "StatefulPartitionedCall/model/sequential_7/dense_15/BiasAdd/ReadVariableOp", "shape": [128], "dtype": "float32"}, {"name": "ConstantFolding/StatefulPartitionedCall/model/sequential_7/dense_15/Gelu/truediv_recip", "shape": [], "dtype": "float32"}, {"name": "StatefulPartitionedCall/model/multi_head_attention_7/attention_output/add/ReadVariableOp", "shape": [128], "dtype": "float32"}, {"name": "StatefulPartitionedCall/model/multi_head_attention_7/key/einsum/Einsum/ReadVariableOp", "shape": [128, 8, 16], "dtype": "float32"}, {"name": "StatefulPartitionedCall/model/multi_head_attention_7/key/add/ReadVariableOp", "shape": [8, 16], "dtype": "float32"}, {"name": "StatefulPartitionedCall/model/multi_head_attention_7/query/einsum/Einsum/ReadVariableOp", "shape": [128, 8, 16], "dtype": "float32"}, {"name": "StatefulPartitionedCall/model/multi_head_attention_7/query/add/ReadVariableOp", "shape": [8, 16], "dtype": "float32"}, {"name": "StatefulPartitionedCall/model/multi_head_attention_7/Mul/y", "shape": [], "dtype": "float32"}, {"name": "StatefulPartitionedCall/model/layer_normalization_14/batchnorm/ReadVariableOp", "shape": [128], "dtype": "float32"}, {"name": "StatefulPartitionedCall/model/layer_normalization_14/moments/mean/reduction_indices", "shape": [1], "dtype": "int32"}, {"name": "StatefulPartitionedCall/model/layer_normalization_14/moments/variance/reduction_indices", "shape": [1], "dtype": "int32"}, {"name": "StatefulPartitionedCall/model/layer_normalization_14/batchnorm/add/y", "shape": [], "dtype": "float32"}, {"name": "StatefulPartitionedCall/model/layer_normalization_14/batchnorm/mul/ReadVariableOp", "shape": [128], "dtype": "float32"}, {"name": "StatefulPartitionedCall/model/multi_head_attention_7/value/einsum/Einsum/ReadVariableOp", "shape": [128, 8, 16], "dtype": "float32"}, {"name": "StatefulPartitionedCall/model/multi_head_attention_7/value/add/ReadVariableOp", "shape": [8, 16], "dtype": "float32"}, {"name": "StatefulPartitionedCall/model/multi_head_attention_7/attention_output/einsum/Einsum/ReadVariableOp", "shape": [8, 16, 128], "dtype": "float32"}, {"name": "StatefulPartitionedCall/model/sequential_6/dense_13/Gelu/mul/x", "shape": [], "dtype": "float32"}, {"name": "StatefulPartitionedCall/model/sequential_6/dense_13/Gelu/add/x", "shape": [], "dtype": "float32"}, {"name": "StatefulPartitionedCall/model/sequential_6/dense_13/Tensordot/Const", "shape": [1], "dtype": "int32"}, {"name": "StatefulPartitionedCall/model/sequential_6/dense_13/Tensordot/axes", "shape": [1], "dtype": "int32"}, {"name": "StatefulPartitionedCall/model/sequential_6/dense_13/Tensordot/GatherV2_1/axis", "shape": [], "dtype": "int32"}, {"name": "StatefulPartitionedCall/model/sequential_6/dense_13/Tensordot/Const_1", "shape": [1], "dtype": "int32"}, {"name": "StatefulPartitionedCall/model/sequential_6/dense_13/Tensordot/ReadVariableOp", "shape": [512, 128], "dtype": "float32"}, {"name": "StatefulPartitionedCall/model/sequential_6/dense_12/Gelu/mul/x", "shape": [], "dtype": "float32"}, {"name": "StatefulPartitionedCall/model/sequential_6/dense_12/Gelu/add/x", "shape": [], "dtype": "float32"}, {"name": "StatefulPartitionedCall/model/sequential_6/dense_12/Tensordot/Const", "shape": [1], "dtype": "int32"}, {"name": "StatefulPartitionedCall/model/sequential_6/dense_12/Tensordot/axes", "shape": [1], "dtype": "int32"}, {"name": "StatefulPartitionedCall/model/sequential_6/dense_12/Tensordot/GatherV2_1/axis", "shape": [], "dtype": "int32"}, {"name": "StatefulPartitionedCall/model/sequential_6/dense_12/Tensordot/Const_1", "shape": [1], "dtype": "int32"}, {"name": "StatefulPartitionedCall/model/sequential_6/dense_12/Tensordot/ReadVariableOp", "shape": [128, 512], "dtype": "float32"}, {"name": "StatefulPartitionedCall/model/layer_normalization_13/batchnorm/ReadVariableOp", "shape": [128], "dtype": "float32"}, {"name": "StatefulPartitionedCall/model/layer_normalization_13/moments/mean/reduction_indices", "shape": [1], "dtype": "int32"}, {"name": "StatefulPartitionedCall/model/layer_normalization_13/moments/variance/reduction_indices", "shape": [1], "dtype": "int32"}, {"name": "StatefulPartitionedCall/model/layer_normalization_13/batchnorm/add/y", "shape": [], "dtype": "float32"}, {"name": "StatefulPartitionedCall/model/layer_normalization_13/batchnorm/mul/ReadVariableOp", "shape": [128], "dtype": "float32"}, {"name": "StatefulPartitionedCall/model/sequential_6/dense_12/Tensordot/free", "shape": [2], "dtype": "int32"}, {"name": "StatefulPartitionedCall/model/sequential_6/dense_12/Tensordot/GatherV2/axis", "shape": [], "dtype": "int32"}, {"name": "StatefulPartitionedCall/model/sequential_6/dense_12/Tensordot/Const_2", "shape": [1], "dtype": "int32"}, {"name": "StatefulPartitionedCall/model/sequential_6/dense_12/Tensordot/concat_1/axis", "shape": [], "dtype": "int32"}, {"name": "StatefulPartitionedCall/model/sequential_6/dense_12/BiasAdd/ReadVariableOp", "shape": [512], "dtype": "float32"}, {"name": "ConstantFolding/StatefulPartitionedCall/model/sequential_6/dense_12/Gelu/truediv_recip", "shape": [], "dtype": "float32"}, {"name": "StatefulPartitionedCall/model/sequential_6/dense_13/Tensordot/free", "shape": [2], "dtype": "int32"}, {"name": "StatefulPartitionedCall/model/sequential_6/dense_13/Tensordot/GatherV2/axis", "shape": [], "dtype": "int32"}, {"name": "StatefulPartitionedCall/model/sequential_6/dense_13/Tensordot/Const_2", "shape": [1], "dtype": "int32"}, {"name": "StatefulPartitionedCall/model/sequential_6/dense_13/Tensordot/concat_1/axis", "shape": [], "dtype": "int32"}, {"name": "StatefulPartitionedCall/model/sequential_6/dense_13/BiasAdd/ReadVariableOp", "shape": [128], "dtype": "float32"}, {"name": "ConstantFolding/StatefulPartitionedCall/model/sequential_6/dense_13/Gelu/truediv_recip", "shape": [], "dtype": "float32"}, {"name": "StatefulPartitionedCall/model/multi_head_attention_6/attention_output/add/ReadVariableOp", "shape": [128], "dtype": "float32"}, {"name": "StatefulPartitionedCall/model/multi_head_attention_6/key/einsum/Einsum/ReadVariableOp", "shape": [128, 8, 16], "dtype": "float32"}, {"name": "StatefulPartitionedCall/model/multi_head_attention_6/key/add/ReadVariableOp", "shape": [8, 16], "dtype": "float32"}, {"name": "StatefulPartitionedCall/model/multi_head_attention_6/query/einsum/Einsum/ReadVariableOp", "shape": [128, 8, 16], "dtype": "float32"}, {"name": "StatefulPartitionedCall/model/multi_head_attention_6/query/add/ReadVariableOp", "shape": [8, 16], "dtype": "float32"}, {"name": "StatefulPartitionedCall/model/multi_head_attention_6/Mul/y", "shape": [], "dtype": "float32"}, {"name": "StatefulPartitionedCall/model/layer_normalization_12/batchnorm/ReadVariableOp", "shape": [128], "dtype": "float32"}, {"name": "StatefulPartitionedCall/model/layer_normalization_12/moments/mean/reduction_indices", "shape": [1], "dtype": "int32"}, {"name": "StatefulPartitionedCall/model/layer_normalization_12/moments/variance/reduction_indices", "shape": [1], "dtype": "int32"}, {"name": "StatefulPartitionedCall/model/layer_normalization_12/batchnorm/add/y", "shape": [], "dtype": "float32"}, {"name": "StatefulPartitionedCall/model/layer_normalization_12/batchnorm/mul/ReadVariableOp", "shape": [128], "dtype": "float32"}, {"name": "StatefulPartitionedCall/model/multi_head_attention_6/value/einsum/Einsum/ReadVariableOp", "shape": [128, 8, 16], "dtype": "float32"}, {"name": "StatefulPartitionedCall/model/multi_head_attention_6/value/add/ReadVariableOp", "shape": [8, 16], "dtype": "float32"}, {"name": "StatefulPartitionedCall/model/multi_head_attention_6/attention_output/einsum/Einsum/ReadVariableOp", "shape": [8, 16, 128], "dtype": "float32"}, {"name": "StatefulPartitionedCall/model/sequential_5/dense_11/Gelu/mul/x", "shape": [], "dtype": "float32"}, {"name": "StatefulPartitionedCall/model/sequential_5/dense_11/Gelu/add/x", "shape": [], "dtype": "float32"}, {"name": "StatefulPartitionedCall/model/sequential_5/dense_11/Tensordot/Const", "shape": [1], "dtype": "int32"}, {"name": "StatefulPartitionedCall/model/sequential_5/dense_11/Tensordot/axes", "shape": [1], "dtype": "int32"}, {"name": "StatefulPartitionedCall/model/sequential_5/dense_11/Tensordot/GatherV2_1/axis", "shape": [], "dtype": "int32"}, {"name": "StatefulPartitionedCall/model/sequential_5/dense_11/Tensordot/Const_1", "shape": [1], "dtype": "int32"}, {"name": "StatefulPartitionedCall/model/sequential_5/dense_11/Tensordot/ReadVariableOp", "shape": [512, 128], "dtype": "float32"}, {"name": "StatefulPartitionedCall/model/sequential_5/dense_10/Gelu/mul/x", "shape": [], "dtype": "float32"}, {"name": "StatefulPartitionedCall/model/sequential_5/dense_10/Gelu/add/x", "shape": [], "dtype": "float32"}, {"name": "StatefulPartitionedCall/model/sequential_5/dense_10/Tensordot/Const", "shape": [1], "dtype": "int32"}, {"name": "StatefulPartitionedCall/model/sequential_5/dense_10/Tensordot/axes", "shape": [1], "dtype": "int32"}, {"name": "StatefulPartitionedCall/model/sequential_5/dense_10/Tensordot/GatherV2_1/axis", "shape": [], "dtype": "int32"}, {"name": "StatefulPartitionedCall/model/sequential_5/dense_10/Tensordot/Const_1", "shape": [1], "dtype": "int32"}, {"name": "StatefulPartitionedCall/model/sequential_5/dense_10/Tensordot/ReadVariableOp", "shape": [128, 512], "dtype": "float32"}, {"name": "StatefulPartitionedCall/model/layer_normalization_11/batchnorm/ReadVariableOp", "shape": [128], "dtype": "float32"}, {"name": "StatefulPartitionedCall/model/layer_normalization_11/moments/mean/reduction_indices", "shape": [1], "dtype": "int32"}, {"name": "StatefulPartitionedCall/model/layer_normalization_11/moments/variance/reduction_indices", "shape": [1], "dtype": "int32"}, {"name": "StatefulPartitionedCall/model/layer_normalization_11/batchnorm/add/y", "shape": [], "dtype": "float32"}, {"name": "StatefulPartitionedCall/model/layer_normalization_11/batchnorm/mul/ReadVariableOp", "shape": [128], "dtype": "float32"}, {"name": "StatefulPartitionedCall/model/sequential_5/dense_10/Tensordot/free", "shape": [2], "dtype": "int32"}, {"name": "StatefulPartitionedCall/model/sequential_5/dense_10/Tensordot/GatherV2/axis", "shape": [], "dtype": "int32"}, {"name": "StatefulPartitionedCall/model/sequential_5/dense_10/Tensordot/Const_2", "shape": [1], "dtype": "int32"}, {"name": "StatefulPartitionedCall/model/sequential_5/dense_10/Tensordot/concat_1/axis", "shape": [], "dtype": "int32"}, {"name": "StatefulPartitionedCall/model/sequential_5/dense_10/BiasAdd/ReadVariableOp", "shape": [512], "dtype": "float32"}, {"name": "ConstantFolding/StatefulPartitionedCall/model/sequential_5/dense_10/Gelu/truediv_recip", "shape": [], "dtype": "float32"}, {"name": "StatefulPartitionedCall/model/sequential_5/dense_11/Tensordot/free", "shape": [2], "dtype": "int32"}, {"name": "StatefulPartitionedCall/model/sequential_5/dense_11/Tensordot/GatherV2/axis", "shape": [], "dtype": "int32"}, {"name": "StatefulPartitionedCall/model/sequential_5/dense_11/Tensordot/Const_2", "shape": [1], "dtype": "int32"}, {"name": "StatefulPartitionedCall/model/sequential_5/dense_11/Tensordot/concat_1/axis", "shape": [], "dtype": "int32"}, {"name": "StatefulPartitionedCall/model/sequential_5/dense_11/BiasAdd/ReadVariableOp", "shape": [128], "dtype": "float32"}, {"name": "ConstantFolding/StatefulPartitionedCall/model/sequential_5/dense_11/Gelu/truediv_recip", "shape": [], "dtype": "float32"}, {"name": "StatefulPartitionedCall/model/multi_head_attention_5/attention_output/add/ReadVariableOp", "shape": [128], "dtype": "float32"}, {"name": "StatefulPartitionedCall/model/multi_head_attention_5/key/einsum/Einsum/ReadVariableOp", "shape": [128, 8, 16], "dtype": "float32"}, {"name": "StatefulPartitionedCall/model/multi_head_attention_5/key/add/ReadVariableOp", "shape": [8, 16], "dtype": "float32"}, {"name": "StatefulPartitionedCall/model/multi_head_attention_5/query/einsum/Einsum/ReadVariableOp", "shape": [128, 8, 16], "dtype": "float32"}, {"name": "StatefulPartitionedCall/model/multi_head_attention_5/query/add/ReadVariableOp", "shape": [8, 16], "dtype": "float32"}, {"name": "StatefulPartitionedCall/model/multi_head_attention_5/Mul/y", "shape": [], "dtype": "float32"}, {"name": "StatefulPartitionedCall/model/layer_normalization_10/batchnorm/ReadVariableOp", "shape": [128], "dtype": "float32"}, {"name": "StatefulPartitionedCall/model/layer_normalization_10/moments/mean/reduction_indices", "shape": [1], "dtype": "int32"}, {"name": "StatefulPartitionedCall/model/layer_normalization_10/moments/variance/reduction_indices", "shape": [1], "dtype": "int32"}, {"name": "StatefulPartitionedCall/model/layer_normalization_10/batchnorm/add/y", "shape": [], "dtype": "float32"}, {"name": "StatefulPartitionedCall/model/layer_normalization_10/batchnorm/mul/ReadVariableOp", "shape": [128], "dtype": "float32"}, {"name": "StatefulPartitionedCall/model/multi_head_attention_5/value/einsum/Einsum/ReadVariableOp", "shape": [128, 8, 16], "dtype": "float32"}, {"name": "StatefulPartitionedCall/model/multi_head_attention_5/value/add/ReadVariableOp", "shape": [8, 16], "dtype": "float32"}, {"name": "StatefulPartitionedCall/model/multi_head_attention_5/attention_output/einsum/Einsum/ReadVariableOp", "shape": [8, 16, 128], "dtype": "float32"}, {"name": "StatefulPartitionedCall/model/sequential_4/dense_9/Gelu/mul/x", "shape": [], "dtype": "float32"}, {"name": "StatefulPartitionedCall/model/sequential_4/dense_9/Gelu/add/x", "shape": [], "dtype": "float32"}, {"name": "StatefulPartitionedCall/model/sequential_4/dense_9/Tensordot/Const", "shape": [1], "dtype": "int32"}, {"name": "StatefulPartitionedCall/model/sequential_4/dense_9/Tensordot/axes", "shape": [1], "dtype": "int32"}, {"name": "StatefulPartitionedCall/model/sequential_4/dense_9/Tensordot/GatherV2_1/axis", "shape": [], "dtype": "int32"}, {"name": "StatefulPartitionedCall/model/sequential_4/dense_9/Tensordot/Const_1", "shape": [1], "dtype": "int32"}, {"name": "StatefulPartitionedCall/model/sequential_4/dense_9/Tensordot/ReadVariableOp", "shape": [512, 128], "dtype": "float32"}, {"name": "StatefulPartitionedCall/model/sequential_4/dense_8/Gelu/mul/x", "shape": [], "dtype": "float32"}, {"name": "StatefulPartitionedCall/model/sequential_4/dense_8/Gelu/add/x", "shape": [], "dtype": "float32"}, {"name": "StatefulPartitionedCall/model/sequential_4/dense_8/Tensordot/Const", "shape": [1], "dtype": "int32"}, {"name": "StatefulPartitionedCall/model/sequential_4/dense_8/Tensordot/axes", "shape": [1], "dtype": "int32"}, {"name": "StatefulPartitionedCall/model/sequential_4/dense_8/Tensordot/GatherV2_1/axis", "shape": [], "dtype": "int32"}, {"name": "StatefulPartitionedCall/model/sequential_4/dense_8/Tensordot/Const_1", "shape": [1], "dtype": "int32"}, {"name": "StatefulPartitionedCall/model/sequential_4/dense_8/Tensordot/ReadVariableOp", "shape": [128, 512], "dtype": "float32"}, {"name": "StatefulPartitionedCall/model/layer_normalization_9/batchnorm/ReadVariableOp", "shape": [128], "dtype": "float32"}, {"name": "StatefulPartitionedCall/model/layer_normalization_9/moments/mean/reduction_indices", "shape": [1], "dtype": "int32"}, {"name": "StatefulPartitionedCall/model/layer_normalization_9/moments/variance/reduction_indices", "shape": [1], "dtype": "int32"}, {"name": "StatefulPartitionedCall/model/layer_normalization_9/batchnorm/add/y", "shape": [], "dtype": "float32"}, {"name": "StatefulPartitionedCall/model/layer_normalization_9/batchnorm/mul/ReadVariableOp", "shape": [128], "dtype": "float32"}, {"name": "StatefulPartitionedCall/model/sequential_4/dense_8/Tensordot/free", "shape": [2], "dtype": "int32"}, {"name": "StatefulPartitionedCall/model/sequential_4/dense_8/Tensordot/GatherV2/axis", "shape": [], "dtype": "int32"}, {"name": "StatefulPartitionedCall/model/sequential_4/dense_8/Tensordot/Const_2", "shape": [1], "dtype": "int32"}, {"name": "StatefulPartitionedCall/model/sequential_4/dense_8/Tensordot/concat_1/axis", "shape": [], "dtype": "int32"}, {"name": "StatefulPartitionedCall/model/sequential_4/dense_8/BiasAdd/ReadVariableOp", "shape": [512], "dtype": "float32"}, {"name": "ConstantFolding/StatefulPartitionedCall/model/sequential_4/dense_8/Gelu/truediv_recip", "shape": [], "dtype": "float32"}, {"name": "StatefulPartitionedCall/model/sequential_4/dense_9/Tensordot/free", "shape": [2], "dtype": "int32"}, {"name": "StatefulPartitionedCall/model/sequential_4/dense_9/Tensordot/GatherV2/axis", "shape": [], "dtype": "int32"}, {"name": "StatefulPartitionedCall/model/sequential_4/dense_9/Tensordot/Const_2", "shape": [1], "dtype": "int32"}, {"name": "StatefulPartitionedCall/model/sequential_4/dense_9/Tensordot/concat_1/axis", "shape": [], "dtype": "int32"}, {"name": "StatefulPartitionedCall/model/sequential_4/dense_9/BiasAdd/ReadVariableOp", "shape": [128], "dtype": "float32"}, {"name": "ConstantFolding/StatefulPartitionedCall/model/sequential_4/dense_9/Gelu/truediv_recip", "shape": [], "dtype": "float32"}, {"name": "StatefulPartitionedCall/model/multi_head_attention_4/attention_output/add/ReadVariableOp", "shape": [128], "dtype": "float32"}, {"name": "StatefulPartitionedCall/model/multi_head_attention_4/key/einsum/Einsum/ReadVariableOp", "shape": [128, 8, 16], "dtype": "float32"}, {"name": "StatefulPartitionedCall/model/multi_head_attention_4/key/add/ReadVariableOp", "shape": [8, 16], "dtype": "float32"}, {"name": "StatefulPartitionedCall/model/multi_head_attention_4/query/einsum/Einsum/ReadVariableOp", "shape": [128, 8, 16], "dtype": "float32"}, {"name": "StatefulPartitionedCall/model/multi_head_attention_4/query/add/ReadVariableOp", "shape": [8, 16], "dtype": "float32"}, {"name": "StatefulPartitionedCall/model/multi_head_attention_4/Mul/y", "shape": [], "dtype": "float32"}, {"name": "StatefulPartitionedCall/model/layer_normalization_8/batchnorm/ReadVariableOp", "shape": [128], "dtype": "float32"}, {"name": "StatefulPartitionedCall/model/layer_normalization_8/moments/mean/reduction_indices", "shape": [1], "dtype": "int32"}, {"name": "StatefulPartitionedCall/model/layer_normalization_8/moments/variance/reduction_indices", "shape": [1], "dtype": "int32"}, {"name": "StatefulPartitionedCall/model/layer_normalization_8/batchnorm/add/y", "shape": [], "dtype": "float32"}, {"name": "StatefulPartitionedCall/model/layer_normalization_8/batchnorm/mul/ReadVariableOp", "shape": [128], "dtype": "float32"}, {"name": "StatefulPartitionedCall/model/multi_head_attention_4/value/einsum/Einsum/ReadVariableOp", "shape": [128, 8, 16], "dtype": "float32"}, {"name": "StatefulPartitionedCall/model/multi_head_attention_4/value/add/ReadVariableOp", "shape": [8, 16], "dtype": "float32"}, {"name": "StatefulPartitionedCall/model/multi_head_attention_4/attention_output/einsum/Einsum/ReadVariableOp", "shape": [8, 16, 128], "dtype": "float32"}, {"name": "StatefulPartitionedCall/model/sequential_3/dense_7/Gelu/mul/x", "shape": [], "dtype": "float32"}, {"name": "StatefulPartitionedCall/model/sequential_3/dense_7/Gelu/add/x", "shape": [], "dtype": "float32"}, {"name": "StatefulPartitionedCall/model/sequential_3/dense_7/Tensordot/Const", "shape": [1], "dtype": "int32"}, {"name": "StatefulPartitionedCall/model/sequential_3/dense_7/Tensordot/axes", "shape": [1], "dtype": "int32"}, {"name": "StatefulPartitionedCall/model/sequential_3/dense_7/Tensordot/GatherV2_1/axis", "shape": [], "dtype": "int32"}, {"name": "StatefulPartitionedCall/model/sequential_3/dense_7/Tensordot/Const_1", "shape": [1], "dtype": "int32"}, {"name": "StatefulPartitionedCall/model/sequential_3/dense_7/Tensordot/ReadVariableOp", "shape": [512, 128], "dtype": "float32"}, {"name": "StatefulPartitionedCall/model/sequential_3/dense_6/Gelu/mul/x", "shape": [], "dtype": "float32"}, {"name": "StatefulPartitionedCall/model/sequential_3/dense_6/Gelu/add/x", "shape": [], "dtype": "float32"}, {"name": "StatefulPartitionedCall/model/sequential_3/dense_6/Tensordot/Const", "shape": [1], "dtype": "int32"}, {"name": "StatefulPartitionedCall/model/sequential_3/dense_6/Tensordot/axes", "shape": [1], "dtype": "int32"}, {"name": "StatefulPartitionedCall/model/sequential_3/dense_6/Tensordot/GatherV2_1/axis", "shape": [], "dtype": "int32"}, {"name": "StatefulPartitionedCall/model/sequential_3/dense_6/Tensordot/Const_1", "shape": [1], "dtype": "int32"}, {"name": "StatefulPartitionedCall/model/sequential_3/dense_6/Tensordot/ReadVariableOp", "shape": [128, 512], "dtype": "float32"}, {"name": "StatefulPartitionedCall/model/layer_normalization_7/batchnorm/ReadVariableOp", "shape": [128], "dtype": "float32"}, {"name": "StatefulPartitionedCall/model/layer_normalization_7/moments/mean/reduction_indices", "shape": [1], "dtype": "int32"}, {"name": "StatefulPartitionedCall/model/layer_normalization_7/moments/variance/reduction_indices", "shape": [1], "dtype": "int32"}, {"name": "StatefulPartitionedCall/model/layer_normalization_7/batchnorm/add/y", "shape": [], "dtype": "float32"}, {"name": "StatefulPartitionedCall/model/layer_normalization_7/batchnorm/mul/ReadVariableOp", "shape": [128], "dtype": "float32"}, {"name": "StatefulPartitionedCall/model/sequential_3/dense_6/Tensordot/free", "shape": [2], "dtype": "int32"}, {"name": "StatefulPartitionedCall/model/sequential_3/dense_6/Tensordot/GatherV2/axis", "shape": [], "dtype": "int32"}, {"name": "StatefulPartitionedCall/model/sequential_3/dense_6/Tensordot/Const_2", "shape": [1], "dtype": "int32"}, {"name": "StatefulPartitionedCall/model/sequential_3/dense_6/Tensordot/concat_1/axis", "shape": [], "dtype": "int32"}, {"name": "StatefulPartitionedCall/model/sequential_3/dense_6/BiasAdd/ReadVariableOp", "shape": [512], "dtype": "float32"}, {"name": "ConstantFolding/StatefulPartitionedCall/model/sequential_3/dense_6/Gelu/truediv_recip", "shape": [], "dtype": "float32"}, {"name": "StatefulPartitionedCall/model/sequential_3/dense_7/Tensordot/free", "shape": [2], "dtype": "int32"}, {"name": "StatefulPartitionedCall/model/sequential_3/dense_7/Tensordot/GatherV2/axis", "shape": [], "dtype": "int32"}, {"name": "StatefulPartitionedCall/model/sequential_3/dense_7/Tensordot/Const_2", "shape": [1], "dtype": "int32"}, {"name": "StatefulPartitionedCall/model/sequential_3/dense_7/Tensordot/concat_1/axis", "shape": [], "dtype": "int32"}, {"name": "StatefulPartitionedCall/model/sequential_3/dense_7/BiasAdd/ReadVariableOp", "shape": [128], "dtype": "float32"}, {"name": "ConstantFolding/StatefulPartitionedCall/model/sequential_3/dense_7/Gelu/truediv_recip", "shape": [], "dtype": "float32"}, {"name": "StatefulPartitionedCall/model/multi_head_attention_3/attention_output/add/ReadVariableOp", "shape": [128], "dtype": "float32"}, {"name": "StatefulPartitionedCall/model/multi_head_attention_3/key/einsum/Einsum/ReadVariableOp", "shape": [128, 8, 16], "dtype": "float32"}, {"name": "StatefulPartitionedCall/model/multi_head_attention_3/key/add/ReadVariableOp", "shape": [8, 16], "dtype": "float32"}, {"name": "StatefulPartitionedCall/model/multi_head_attention_3/query/einsum/Einsum/ReadVariableOp", "shape": [128, 8, 16], "dtype": "float32"}, {"name": "StatefulPartitionedCall/model/multi_head_attention_3/query/add/ReadVariableOp", "shape": [8, 16], "dtype": "float32"}, {"name": "StatefulPartitionedCall/model/multi_head_attention_3/Mul/y", "shape": [], "dtype": "float32"}, {"name": "StatefulPartitionedCall/model/layer_normalization_6/batchnorm/ReadVariableOp", "shape": [128], "dtype": "float32"}, {"name": "StatefulPartitionedCall/model/layer_normalization_6/moments/mean/reduction_indices", "shape": [1], "dtype": "int32"}, {"name": "StatefulPartitionedCall/model/layer_normalization_6/moments/variance/reduction_indices", "shape": [1], "dtype": "int32"}, {"name": "StatefulPartitionedCall/model/layer_normalization_6/batchnorm/add/y", "shape": [], "dtype": "float32"}, {"name": "StatefulPartitionedCall/model/layer_normalization_6/batchnorm/mul/ReadVariableOp", "shape": [128], "dtype": "float32"}, {"name": "StatefulPartitionedCall/model/multi_head_attention_3/value/einsum/Einsum/ReadVariableOp", "shape": [128, 8, 16], "dtype": "float32"}, {"name": "StatefulPartitionedCall/model/multi_head_attention_3/value/add/ReadVariableOp", "shape": [8, 16], "dtype": "float32"}, {"name": "StatefulPartitionedCall/model/multi_head_attention_3/attention_output/einsum/Einsum/ReadVariableOp", "shape": [8, 16, 128], "dtype": "float32"}, {"name": "StatefulPartitionedCall/model/sequential_2/dense_5/Gelu/mul/x", "shape": [], "dtype": "float32"}, {"name": "StatefulPartitionedCall/model/sequential_2/dense_5/Gelu/add/x", "shape": [], "dtype": "float32"}, {"name": "StatefulPartitionedCall/model/sequential_2/dense_5/Tensordot/Const", "shape": [1], "dtype": "int32"}, {"name": "StatefulPartitionedCall/model/sequential_2/dense_5/Tensordot/axes", "shape": [1], "dtype": "int32"}, {"name": "StatefulPartitionedCall/model/sequential_2/dense_5/Tensordot/GatherV2_1/axis", "shape": [], "dtype": "int32"}, {"name": "StatefulPartitionedCall/model/sequential_2/dense_5/Tensordot/Const_1", "shape": [1], "dtype": "int32"}, {"name": "StatefulPartitionedCall/model/sequential_2/dense_5/Tensordot/ReadVariableOp", "shape": [512, 128], "dtype": "float32"}, {"name": "StatefulPartitionedCall/model/sequential_2/dense_4/Gelu/mul/x", "shape": [], "dtype": "float32"}, {"name": "StatefulPartitionedCall/model/sequential_2/dense_4/Gelu/add/x", "shape": [], "dtype": "float32"}, {"name": "StatefulPartitionedCall/model/sequential_2/dense_4/Tensordot/Const", "shape": [1], "dtype": "int32"}, {"name": "StatefulPartitionedCall/model/sequential_2/dense_4/Tensordot/axes", "shape": [1], "dtype": "int32"}, {"name": "StatefulPartitionedCall/model/sequential_2/dense_4/Tensordot/GatherV2_1/axis", "shape": [], "dtype": "int32"}, {"name": "StatefulPartitionedCall/model/sequential_2/dense_4/Tensordot/Const_1", "shape": [1], "dtype": "int32"}, {"name": "StatefulPartitionedCall/model/sequential_2/dense_4/Tensordot/ReadVariableOp", "shape": [128, 512], "dtype": "float32"}, {"name": "StatefulPartitionedCall/model/layer_normalization_5/batchnorm/ReadVariableOp", "shape": [128], "dtype": "float32"}, {"name": "StatefulPartitionedCall/model/layer_normalization_5/moments/mean/reduction_indices", "shape": [1], "dtype": "int32"}, {"name": "StatefulPartitionedCall/model/layer_normalization_5/moments/variance/reduction_indices", "shape": [1], "dtype": "int32"}, {"name": "StatefulPartitionedCall/model/layer_normalization_5/batchnorm/add/y", "shape": [], "dtype": "float32"}, {"name": "StatefulPartitionedCall/model/layer_normalization_5/batchnorm/mul/ReadVariableOp", "shape": [128], "dtype": "float32"}, {"name": "StatefulPartitionedCall/model/sequential_2/dense_4/Tensordot/free", "shape": [2], "dtype": "int32"}, {"name": "StatefulPartitionedCall/model/sequential_2/dense_4/Tensordot/GatherV2/axis", "shape": [], "dtype": "int32"}, {"name": "StatefulPartitionedCall/model/sequential_2/dense_4/Tensordot/Const_2", "shape": [1], "dtype": "int32"}, {"name": "StatefulPartitionedCall/model/sequential_2/dense_4/Tensordot/concat_1/axis", "shape": [], "dtype": "int32"}, {"name": "StatefulPartitionedCall/model/sequential_2/dense_4/BiasAdd/ReadVariableOp", "shape": [512], "dtype": "float32"}, {"name": "ConstantFolding/StatefulPartitionedCall/model/sequential_2/dense_4/Gelu/truediv_recip", "shape": [], "dtype": "float32"}, {"name": "StatefulPartitionedCall/model/sequential_2/dense_5/Tensordot/free", "shape": [2], "dtype": "int32"}, {"name": "StatefulPartitionedCall/model/sequential_2/dense_5/Tensordot/GatherV2/axis", "shape": [], "dtype": "int32"}, {"name": "StatefulPartitionedCall/model/sequential_2/dense_5/Tensordot/Const_2", "shape": [1], "dtype": "int32"}, {"name": "StatefulPartitionedCall/model/sequential_2/dense_5/Tensordot/concat_1/axis", "shape": [], "dtype": "int32"}, {"name": "StatefulPartitionedCall/model/sequential_2/dense_5/BiasAdd/ReadVariableOp", "shape": [128], "dtype": "float32"}, {"name": "ConstantFolding/StatefulPartitionedCall/model/sequential_2/dense_5/Gelu/truediv_recip", "shape": [], "dtype": "float32"}, {"name": "StatefulPartitionedCall/model/multi_head_attention_2/attention_output/add/ReadVariableOp", "shape": [128], "dtype": "float32"}, {"name": "StatefulPartitionedCall/model/multi_head_attention_2/key/einsum/Einsum/ReadVariableOp", "shape": [128, 8, 16], "dtype": "float32"}, {"name": "StatefulPartitionedCall/model/multi_head_attention_2/key/add/ReadVariableOp", "shape": [8, 16], "dtype": "float32"}, {"name": "StatefulPartitionedCall/model/multi_head_attention_2/query/einsum/Einsum/ReadVariableOp", "shape": [128, 8, 16], "dtype": "float32"}, {"name": "StatefulPartitionedCall/model/multi_head_attention_2/query/add/ReadVariableOp", "shape": [8, 16], "dtype": "float32"}, {"name": "StatefulPartitionedCall/model/multi_head_attention_2/Mul/y", "shape": [], "dtype": "float32"}, {"name": "StatefulPartitionedCall/model/layer_normalization_4/batchnorm/ReadVariableOp", "shape": [128], "dtype": "float32"}, {"name": "StatefulPartitionedCall/model/layer_normalization_4/moments/mean/reduction_indices", "shape": [1], "dtype": "int32"}, {"name": "StatefulPartitionedCall/model/layer_normalization_4/moments/variance/reduction_indices", "shape": [1], "dtype": "int32"}, {"name": "StatefulPartitionedCall/model/layer_normalization_4/batchnorm/add/y", "shape": [], "dtype": "float32"}, {"name": "StatefulPartitionedCall/model/layer_normalization_4/batchnorm/mul/ReadVariableOp", "shape": [128], "dtype": "float32"}, {"name": "StatefulPartitionedCall/model/multi_head_attention_2/value/einsum/Einsum/ReadVariableOp", "shape": [128, 8, 16], "dtype": "float32"}, {"name": "StatefulPartitionedCall/model/multi_head_attention_2/value/add/ReadVariableOp", "shape": [8, 16], "dtype": "float32"}, {"name": "StatefulPartitionedCall/model/multi_head_attention_2/attention_output/einsum/Einsum/ReadVariableOp", "shape": [8, 16, 128], "dtype": "float32"}, {"name": "StatefulPartitionedCall/model/sequential_1/dense_3/Gelu/mul/x", "shape": [], "dtype": "float32"}, {"name": "StatefulPartitionedCall/model/sequential_1/dense_3/Gelu/add/x", "shape": [], "dtype": "float32"}, {"name": "StatefulPartitionedCall/model/sequential_1/dense_3/Tensordot/Const", "shape": [1], "dtype": "int32"}, {"name": "StatefulPartitionedCall/model/sequential_1/dense_3/Tensordot/axes", "shape": [1], "dtype": "int32"}, {"name": "StatefulPartitionedCall/model/sequential_1/dense_3/Tensordot/GatherV2_1/axis", "shape": [], "dtype": "int32"}, {"name": "StatefulPartitionedCall/model/sequential_1/dense_3/Tensordot/Const_1", "shape": [1], "dtype": "int32"}, {"name": "StatefulPartitionedCall/model/sequential_1/dense_3/Tensordot/ReadVariableOp", "shape": [512, 128], "dtype": "float32"}, {"name": "StatefulPartitionedCall/model/sequential_1/dense_2/Gelu/mul/x", "shape": [], "dtype": "float32"}, {"name": "StatefulPartitionedCall/model/sequential_1/dense_2/Gelu/add/x", "shape": [], "dtype": "float32"}, {"name": "StatefulPartitionedCall/model/sequential_1/dense_2/Tensordot/Const", "shape": [1], "dtype": "int32"}, {"name": "StatefulPartitionedCall/model/sequential_1/dense_2/Tensordot/axes", "shape": [1], "dtype": "int32"}, {"name": "StatefulPartitionedCall/model/sequential_1/dense_2/Tensordot/GatherV2_1/axis", "shape": [], "dtype": "int32"}, {"name": "StatefulPartitionedCall/model/sequential_1/dense_2/Tensordot/Const_1", "shape": [1], "dtype": "int32"}, {"name": "StatefulPartitionedCall/model/sequential_1/dense_2/Tensordot/ReadVariableOp", "shape": [128, 512], "dtype": "float32"}, {"name": "StatefulPartitionedCall/model/layer_normalization_3/batchnorm/ReadVariableOp", "shape": [128], "dtype": "float32"}, {"name": "StatefulPartitionedCall/model/layer_normalization_3/moments/mean/reduction_indices", "shape": [1], "dtype": "int32"}, {"name": "StatefulPartitionedCall/model/layer_normalization_3/moments/variance/reduction_indices", "shape": [1], "dtype": "int32"}, {"name": "StatefulPartitionedCall/model/layer_normalization_3/batchnorm/add/y", "shape": [], "dtype": "float32"}, {"name": "StatefulPartitionedCall/model/layer_normalization_3/batchnorm/mul/ReadVariableOp", "shape": [128], "dtype": "float32"}, {"name": "StatefulPartitionedCall/model/sequential_1/dense_2/Tensordot/free", "shape": [2], "dtype": "int32"}, {"name": "StatefulPartitionedCall/model/sequential_1/dense_2/Tensordot/GatherV2/axis", "shape": [], "dtype": "int32"}, {"name": "StatefulPartitionedCall/model/sequential_1/dense_2/Tensordot/Const_2", "shape": [1], "dtype": "int32"}, {"name": "StatefulPartitionedCall/model/sequential_1/dense_2/Tensordot/concat_1/axis", "shape": [], "dtype": "int32"}, {"name": "StatefulPartitionedCall/model/sequential_1/dense_2/BiasAdd/ReadVariableOp", "shape": [512], "dtype": "float32"}, {"name": "ConstantFolding/StatefulPartitionedCall/model/sequential_1/dense_2/Gelu/truediv_recip", "shape": [], "dtype": "float32"}, {"name": "StatefulPartitionedCall/model/sequential_1/dense_3/Tensordot/free", "shape": [2], "dtype": "int32"}, {"name": "StatefulPartitionedCall/model/sequential_1/dense_3/Tensordot/GatherV2/axis", "shape": [], "dtype": "int32"}, {"name": "StatefulPartitionedCall/model/sequential_1/dense_3/Tensordot/Const_2", "shape": [1], "dtype": "int32"}, {"name": "StatefulPartitionedCall/model/sequential_1/dense_3/Tensordot/concat_1/axis", "shape": [], "dtype": "int32"}, {"name": "StatefulPartitionedCall/model/sequential_1/dense_3/BiasAdd/ReadVariableOp", "shape": [128], "dtype": "float32"}, {"name": "ConstantFolding/StatefulPartitionedCall/model/sequential_1/dense_3/Gelu/truediv_recip", "shape": [], "dtype": "float32"}, {"name": "StatefulPartitionedCall/model/multi_head_attention_1/attention_output/add/ReadVariableOp", "shape": [128], "dtype": "float32"}, {"name": "StatefulPartitionedCall/model/multi_head_attention_1/key/einsum/Einsum/ReadVariableOp", "shape": [128, 8, 16], "dtype": "float32"}, {"name": "StatefulPartitionedCall/model/multi_head_attention_1/key/add/ReadVariableOp", "shape": [8, 16], "dtype": "float32"}, {"name": "StatefulPartitionedCall/model/multi_head_attention_1/query/einsum/Einsum/ReadVariableOp", "shape": [128, 8, 16], "dtype": "float32"}, {"name": "StatefulPartitionedCall/model/multi_head_attention_1/query/add/ReadVariableOp", "shape": [8, 16], "dtype": "float32"}, {"name": "StatefulPartitionedCall/model/multi_head_attention_1/Mul/y", "shape": [], "dtype": "float32"}, {"name": "StatefulPartitionedCall/model/layer_normalization_2/batchnorm/ReadVariableOp", "shape": [128], "dtype": "float32"}, {"name": "StatefulPartitionedCall/model/layer_normalization_2/moments/mean/reduction_indices", "shape": [1], "dtype": "int32"}, {"name": "StatefulPartitionedCall/model/layer_normalization_2/moments/variance/reduction_indices", "shape": [1], "dtype": "int32"}, {"name": "StatefulPartitionedCall/model/layer_normalization_2/batchnorm/add/y", "shape": [], "dtype": "float32"}, {"name": "StatefulPartitionedCall/model/layer_normalization_2/batchnorm/mul/ReadVariableOp", "shape": [128], "dtype": "float32"}, {"name": "StatefulPartitionedCall/model/multi_head_attention_1/value/einsum/Einsum/ReadVariableOp", "shape": [128, 8, 16], "dtype": "float32"}, {"name": "StatefulPartitionedCall/model/multi_head_attention_1/value/add/ReadVariableOp", "shape": [8, 16], "dtype": "float32"}, {"name": "StatefulPartitionedCall/model/multi_head_attention_1/attention_output/einsum/Einsum/ReadVariableOp", "shape": [8, 16, 128], "dtype": "float32"}, {"name": "StatefulPartitionedCall/model/sequential/dense_1/Gelu/mul/x", "shape": [], "dtype": "float32"}, {"name": "StatefulPartitionedCall/model/sequential/dense_1/Gelu/add/x", "shape": [], "dtype": "float32"}, {"name": "StatefulPartitionedCall/model/sequential/dense_1/Tensordot/Const", "shape": [1], "dtype": "int32"}, {"name": "StatefulPartitionedCall/model/sequential/dense_1/Tensordot/axes", "shape": [1], "dtype": "int32"}, {"name": "StatefulPartitionedCall/model/sequential/dense_1/Tensordot/GatherV2_1/axis", "shape": [], "dtype": "int32"}, {"name": "StatefulPartitionedCall/model/sequential/dense_1/Tensordot/Const_1", "shape": [1], "dtype": "int32"}, {"name": "StatefulPartitionedCall/model/sequential/dense_1/Tensordot/ReadVariableOp", "shape": [512, 128], "dtype": "float32"}, {"name": "StatefulPartitionedCall/model/sequential/dense/Gelu/mul/x", "shape": [], "dtype": "float32"}, {"name": "StatefulPartitionedCall/model/sequential/dense/Gelu/add/x", "shape": [], "dtype": "float32"}, {"name": "StatefulPartitionedCall/model/sequential/dense/Tensordot/Const", "shape": [1], "dtype": "int32"}, {"name": "StatefulPartitionedCall/model/sequential/dense/Tensordot/axes", "shape": [1], "dtype": "int32"}, {"name": "StatefulPartitionedCall/model/sequential/dense/Tensordot/GatherV2_1/axis", "shape": [], "dtype": "int32"}, {"name": "StatefulPartitionedCall/model/sequential/dense/Tensordot/Const_1", "shape": [1], "dtype": "int32"}, {"name": "StatefulPartitionedCall/model/sequential/dense/Tensordot/ReadVariableOp", "shape": [128, 512], "dtype": "float32"}, {"name": "StatefulPartitionedCall/model/layer_normalization_1/batchnorm/ReadVariableOp", "shape": [128], "dtype": "float32"}, {"name": "StatefulPartitionedCall/model/layer_normalization_1/moments/mean/reduction_indices", "shape": [1], "dtype": "int32"}, {"name": "StatefulPartitionedCall/model/layer_normalization_1/moments/variance/reduction_indices", "shape": [1], "dtype": "int32"}, {"name": "StatefulPartitionedCall/model/layer_normalization_1/batchnorm/add/y", "shape": [], "dtype": "float32"}, {"name": "StatefulPartitionedCall/model/layer_normalization_1/batchnorm/mul/ReadVariableOp", "shape": [128], "dtype": "float32"}, {"name": "StatefulPartitionedCall/model/sequential/dense/Tensordot/free", "shape": [2], "dtype": "int32"}, {"name": "StatefulPartitionedCall/model/sequential/dense/Tensordot/GatherV2/axis", "shape": [], "dtype": "int32"}, {"name": "StatefulPartitionedCall/model/sequential/dense/Tensordot/Const_2", "shape": [1], "dtype": "int32"}, {"name": "StatefulPartitionedCall/model/sequential/dense/Tensordot/concat_1/axis", "shape": [], "dtype": "int32"}, {"name": "StatefulPartitionedCall/model/sequential/dense/BiasAdd/ReadVariableOp", "shape": [512], "dtype": "float32"}, {"name": "ConstantFolding/StatefulPartitionedCall/model/sequential/dense/Gelu/truediv_recip", "shape": [], "dtype": "float32"}, {"name": "StatefulPartitionedCall/model/sequential/dense_1/Tensordot/free", "shape": [2], "dtype": "int32"}, {"name": "StatefulPartitionedCall/model/sequential/dense_1/Tensordot/GatherV2/axis", "shape": [], "dtype": "int32"}, {"name": "StatefulPartitionedCall/model/sequential/dense_1/Tensordot/Const_2", "shape": [1], "dtype": "int32"}, {"name": "StatefulPartitionedCall/model/sequential/dense_1/Tensordot/concat_1/axis", "shape": [], "dtype": "int32"}, {"name": "StatefulPartitionedCall/model/sequential/dense_1/BiasAdd/ReadVariableOp", "shape": [128], "dtype": "float32"}, {"name": "ConstantFolding/StatefulPartitionedCall/model/sequential/dense_1/Gelu/truediv_recip", "shape": [], "dtype": "float32"}, {"name": "StatefulPartitionedCall/model/multi_head_attention/attention_output/add/ReadVariableOp", "shape": [128], "dtype": "float32"}, {"name": "StatefulPartitionedCall/model/multi_head_attention/key/einsum/Einsum/ReadVariableOp", "shape": [128, 8, 16], "dtype": "float32"}, {"name": "StatefulPartitionedCall/model/multi_head_attention/key/add/ReadVariableOp", "shape": [8, 16], "dtype": "float32"}, {"name": "StatefulPartitionedCall/model/multi_head_attention/query/einsum/Einsum/ReadVariableOp", "shape": [128, 8, 16], "dtype": "float32"}, {"name": "StatefulPartitionedCall/model/multi_head_attention/query/add/ReadVariableOp", "shape": [8, 16], "dtype": "float32"}, {"name": "StatefulPartitionedCall/model/multi_head_attention/Mul/y", "shape": [], "dtype": "float32"}, {"name": "StatefulPartitionedCall/model/layer_normalization/batchnorm/ReadVariableOp", "shape": [128], "dtype": "float32"}, {"name": "StatefulPartitionedCall/model/layer_normalization/moments/mean/reduction_indices", "shape": [1], "dtype": "int32"}, {"name": "StatefulPartitionedCall/model/layer_normalization/moments/variance/reduction_indices", "shape": [1], "dtype": "int32"}, {"name": "StatefulPartitionedCall/model/layer_normalization/batchnorm/add/y", "shape": [], "dtype": "float32"}, {"name": "StatefulPartitionedCall/model/layer_normalization/batchnorm/mul/ReadVariableOp", "shape": [128], "dtype": "float32"}, {"name": "StatefulPartitionedCall/model/multi_head_attention/value/einsum/Einsum/ReadVariableOp", "shape": [128, 8, 16], "dtype": "float32"}, {"name": "StatefulPartitionedCall/model/multi_head_attention/value/add/ReadVariableOp", "shape": [8, 16], "dtype": "float32"}, {"name": "StatefulPartitionedCall/model/multi_head_attention/attention_output/einsum/Einsum/ReadVariableOp", "shape": [8, 16, 128], "dtype": "float32"}, {"name": "StatefulPartitionedCall/model/tubelet_embedding/conv3d/Conv3D/ReadVariableOp", "shape": [8, 8, 16, 1, 128], "dtype": "float32"}, {"name": "StatefulPartitionedCall/model/tubelet_embedding/conv3d/BiasAdd/ReadVariableOp", "shape": [128], "dtype": "float32"}, {"name": "StatefulPartitionedCall/model/tubelet_embedding/reshape/strided_slice/stack", "shape": [1], "dtype": "int32"}, {"name": "StatefulPartitionedCall/model/tubelet_embedding/reshape/strided_slice/stack_1", "shape": [1], "dtype": "int32"}, {"name": "StatefulPartitionedCall/model/tubelet_embedding/reshape/strided_slice/stack_2", "shape": [1], "dtype": "int32"}, {"name": "StatefulPartitionedCall/model/tubelet_embedding/reshape/Reshape/shape/1", "shape": [], "dtype": "int32"}, {"name": "StatefulPartitionedCall/model/tubelet_embedding/reshape/Reshape/shape/2", "shape": [], "dtype": "int32"}, {"name": "StatefulPartitionedCall/model/positional_encoder/embedding/embedding_lookup", "shape": [528, 128], "dtype": "float32"}, {"name": "StatefulPartitionedCall/model/layer_normalization_16/moments/mean/reduction_indices", "shape": [1], "dtype": "int32"}, {"name": "StatefulPartitionedCall/model/layer_normalization_16/moments/variance/reduction_indices", "shape": [1], "dtype": "int32"}, {"name": "StatefulPartitionedCall/model/layer_normalization_16/batchnorm/add/y", "shape": [], "dtype": "float32"}, {"name": "StatefulPartitionedCall/model/layer_normalization_16/batchnorm/mul/ReadVariableOp", "shape": [128], "dtype": "float32"}, {"name": "StatefulPartitionedCall/model/global_average_pooling1d/Mean/reduction_indices", "shape": [], "dtype": "int32"}, {"name": "StatefulPartitionedCall/model/dense_16/MatMul/ReadVariableOp", "shape": [128, 8], "dtype": "float32"}, {"name": "StatefulPartitionedCall/model/dense_16/BiasAdd/ReadVariableOp", "shape": [8], "dtype": "float32"}]}]}